ARTIFICIAL_INTELLIGENCE/Tensor_&_Setup/digit_cnn_model.pth (torch, 835181 bytes, 16 tensors)

features.0.weight f4 [16, 1, 3, 3]
-0.016205672 0.19610475 0.29193842 -0.10495899 0.24743214 -0.024883058 -0.022224396 0.24764715
0.2314011 -0.18527515 0.278396 0.05372116 0.096571825 0.11625888 -0.32587096 0.07740589
0.16435137 0.12798978 0.18940656 -0.15331574 -0.2006776 0.050239865 0.030616168 -0.119701765
0.17572106 -0.20320798 -0.18253788 0.13078558 -0.25963593 0.1806868 0.04207263 -0.041726302
-0.0077990964 -0.09666801 -0.026434548 -0.2902169 0.22853592 0.10191232 0.2566956 0.13925867
0.13931642 0.098147936 0.0751606 -0.07875419 -0.16144796 0.30100217 -0.040786967 -0.057149213
-0.24516037 -0.2629654 -0.2734644 -0.07664632 -0.14289127 0.31969017 0.05884184 -0.2886054
0.09680974 -0.11471172 -0.03128446 0.15219925 0.03456174 -0.2701538 0.054402392 -0.37219617
-0.22426327 -0.1636882 0.22082375 0.24909954 0.06324195 0.2584674 -0.04427349 0.23254299
0.03955281 -0.000717992 0.14775814 0.011153832 0.16757393 -0.20049001 0.25037894 0.17008288
-0.27957973 0.17381205 0.21921264 -0.19461831 0.29552367 -0.03518404 -0.26143175 0.097124696
-0.22208811 -0.18883677 -0.15830533 -0.22858247 0.12075332 0.24176827 0.30762807 0.2064521
-0.053275485 -0.15311171 -0.2955821 0.31414756 0.01237978 0.016408432 0.061811842 -0.124024026
-0.0016114509 -0.34791553 -0.008772149 -0.31029293 -0.14291216 -0.21974863 0.0117645 0.29737395
-0.19237705 -0.21573113 0.14041938 0.24726538 -0.013764469 0.21167354 -0.009212201 -0.052809455
-0.20988284 -0.08808483 0.1493481 -0.3187998 0.0763288 0.2247364 0.08132294 0.2307012
0.19524133 -0.26174334 0.20672381 -0.025077205 -0.22177938 -0.29517788 0.059697643 -0.16995142
0.29522502 0.009260162 -0.13980041 -0.20437624 -0.24824503 -0.20159702 -0.10716826 -0.047166236
00000000: c2c1 84bc afcf 483e f478 953e bdf4 d6bd
00000010: da5e 7d3e 8ed7 cbbc f00f b6bc 3797 7d3e
00000020: 69f4 6c3e c5b8 3dbe ec89 8e3e b80a 5c3d
00000030: 73c7 c53d 2319 ee3d 8fd8 a6be fb86 9e3d
00000040: ba4b 283e c10f 033e cbf3 413e cdfe 1cbe
00000050: 6e7e 4dbe 51c8 4d3d c2ce fa3c 3326 f5bd
00000060: 39f0 333e c115 50be 36eb 3abe a8ec 053e
00000070: 00ef 84be f605 393e 5a54 2c3d 33e9 2abd
00000080: 908f ffbb e1f9 c5bd 448d d8bc 4f97 94be
00000090: 5205 6a3e 68b7 d03d 9b6d 833e d399 0e3e
000000a0: f7a8 0e3e c901 c93d cded 993d e049 a1bd
000000b0: 9d52 25be f51c 9a3e 3c10 27bd 4b15 6abd
000000c0: 520b 7bbe 67a3 86be 8703 8cbe bff8 9cbd
000000d0: 1752 12be 6eae a33e 2404 713d 16c4 93be
000000e0: 2f44 c63d faed eabd 2224 00bd 1fda 1b3e
000000f0: 9c90 0d3d 9951 8abe 0bd5 5e3d 7f90 bebe
00000100: 45a5 65be e19d 27be 9f1f 623e f313 7f3e
00000110: ff84 813d d755 843e 1e58 35bd c01f 6e3e
00000120: 2102 223d a137 3cba e94d 173e 90be 363c
00000130: 8098 2b3e 414d 4dbe ab31 803e 352a 2e3e
00000140: 1325 8fbe c9fb 313e 4779 603e 064a 47be
00000150: e14e 973e 241d 10bd 62da 85be 50e9 c63d
00000160: 116b 63be 6d5e 41be cb1a 22be 8611 6abe
00000170: 844d f73d 1a92 773e 6d81 9d3e 2e68 533e
00000180: 6537 5abd 51c9 1cbe 8956 97be f3d7 a03e
00000190: 90d4 4a3c fa6a 863c 6a2e 7d3d 4f00 febd
000001a0: 5237 d3ba fc21 b2be 0fb9 0fbc b7de 9ebe
000001b0: 9157 12be c905 61be e4bf 403c 6641 983e
000001c0: 7dfe 44be 9fe8 5cbe 19ca 0f3e 2333 7d3e
000001d0: 5e84 61bc f3c0 583e c6ee 16bc ba4e 58bd
000001e0: 87eb 56be d265 b4bd b5ee 183e ba39 a3be
000001f0: 4652 9c3d 4d21 663e a48c a63d ef3c 6c3e
00000200: 58ed 473e 3903 86be 68af 533e b66e cdbc
00000210: 221a 63be 8e21 97be 8485 743d bf07 2ebe
00000220: bc27 973e efb7 173c d727 0fbe 0148 51be
00000230: f233 7ebe 736f 4ebe 087b dbbd 6231 41bd

features.0.bias f4 [16]
0.14329225 0.020971224 0.020872887 -0.06624457 -0.13246004 -0.21959211 -0.16294198 -0.31023285
0.24297678 0.09445231 0.01915909 0.114446126 -0.2801402 -0.029330214 -0.16357987 -0.025782658
00000000: 34bb 123e d8cb ab3c 9efd aa3c 3cab 87bd
00000010: 9ba3 07be c1dc 60be 43da 26be d7d6 9ebe
00000020: e8ce 783e 3670 c13d 86f3 9c3c bb62 ea3d
00000030: 896e 8fbe eb45 f0bc 7b81 27be 2736 d3bc

features.1.weight f4 [16]
0.81050235 0.8556427 1.0933918 0.9552431 0.8785272 1.2089547 1.1690351 0.90429777
0.85340005 1.0824254 0.92061454 1.03019 1.1485822 0.9694194 1.0607563 1.1086794
00000000: 157d 4f3f 660b 5b3f 43f4 8b3f d08a 743f
00000010: 29e7 603f 07bf 9a3f f1a2 953f 0f80 673f
00000020: 6d78 5a3f ea8c 8a3f 65ad 6b3f 44dd 833f
00000030: be04 933f df2b 783f ddc6 873f 35e9 8d3f

features.1.bias f4 [16]
-0.24539745 -0.33692378 -0.11889807 -0.18413399 -0.16425984 -0.14286448 -0.17458755 -0.14409068
-0.27826363 -0.16717981 -0.14645395 -0.17296681 0.011331816 0.07556662 -0.14781107 0.014652753
00000000: 7849 7bbe 4681 acbe d580 f3bd 9f8d 3cbe
00000010: bb33 28be 114b 12be 14c7 32be 828c 13be
00000020: 9278 8ebe 2f31 2bbe 06f8 15be 361e 31be
00000030: 15a9 393c acc2 9a3d c95b 17be 1a12 703c

features.1.running_mean f4 [16]
0.16576388 0.028409544 0.012325455 -0.07446491 -0.11410306 -0.21718495 -0.16500136 -0.3102233
0.2486089 0.09054499 0.008558712 0.105233766 -0.27936617 -0.02642559 -0.1657454 -0.044334963
00000000: 02be 293e 22bb e83c b5f0 493c 0f81 98bd
00000010: ddae e9bd bb65 5ebe 1ef6 28be 97d5 9ebe
00000020: 5593 7e3e a76f b93d d739 0c3c cd84 d73d
00000030: 1509 8fbe 7b7a d8bc 2ab9 29be 9498 35bd

features.1.running_var f4 [16]
0.82913506 0.1714458 0.27505648 0.14759466 0.5622943 0.3409233 0.12646891 0.32260677
0.19564229 0.38665596 0.09878698 0.31284803 0.15356946 0.13692458 0.21743712 0.52312994
00000000: 3242 543f 7d8f 2f3e 34d4 8c3e 0e23 173e
00000010: 85f2 0f3f 808d ae3e 1181 013e b72c a53e
00000020: 7456 483e c5f7 c53e d450 ca3d 9e2d a03e
00000030: 5041 1d3e f535 0c3e d6a7 5e3e d8eb 053f

features.4.weight f4 [32, 16, 3, 3]
0.018949285 -0.017924204 -0.094604775 0.029824328 0.04187756 -0.051992282 -0.0033533939 0.0064079408
-0.040604476 0.01147859 0.0061081443 0.08058473 0.062388297 0.030201526 0.053710382 -0.08322161
-0.048611008 -0.026067097 0.077089354 0.0701839 -0.12125828 -0.17932123 -0.23275942 -0.04052814
0.04390122 -0.029427908 -0.10951835 -0.032755904 -0.107499026 -0.08096204 0.019198336 -0.07639113
-0.097416095 -0.0046813865 -0.024480129 -0.061770804 0.06156999 0.057556164 -0.077593006 -0.062108263
-0.07300377 -0.104258366 -0.012509226 0.016402453 0.0074832165 -0.116671436 -0.022363417 0.03138013
-0.13634159 -0.28275365 0.037736554 0.02376365 -0.10961932 -0.07913821 0.04585216 0.0786977
0.04138855 -0.04841264 -0.014153518 0.0034405692 -0.15837097 -0.06545903 -0.103362136 0.032132916
-0.018080873 0.013941602 0.01389978 0.09309492 0.063769 -0.061292686 -0.010758264 -0.0036841151
0.097659394 0.10735462 0.026843145 -0.0155583685 0.035663843 0.06579208 -0.04251992 -0.050862085
-0.028169757 0.04456609 0.12024676 0.022310264 -0.05948237 -0.13865462 0.0328513 0.037312396
-0.16641715 -0.17819002 -0.03473033 0.060505766 0.11566344 0.106538534 0.07255786 0.05635438
0.044772077 0.06716324 0.048784293 -0.055731922 -0.044947863 -0.028379178 -0.017330943 -0.1521788
-0.1016603 0.04276028 0.013177544 -0.087857775 -0.08841156 -0.035307836 -0.06328406 0.023023713
0.12552278 0.09508666 0.028523613 -0.011773221 0.06995262 -0.04091241 -0.06442331 -0.01632232
0.006812482 -0.0647664 -0.02527076 -0.1030577 0.07304786 0.040849295 0.01421241 -0.046392508
0.020600686 0.054288372 0.08720887 0.03295065 0.0067314133 0.12314878 0.093802206 -0.15516587
-0.14660232 -0.10357697 0.010652545 -0.12918647 -0.052370757 0.002885941 0.06949083 0.14688599
-0.007209549 0.016979294 0.0465557 0.051898774 -0.014388123 -0.043498036 0.020760752 -0.08104362
-0.1164571 0.06890676 -0.021692814 0.0445014 0.031034376 -0.051038265 -0.016049517 -0.11540121
-0.0064968476 -0.05286923 0.06009458 -0.026726374 -0.14929631 -0.04901234 -0.21430169 -0.11055814
-0.04538522 -0.07301082 -0.03755215 0.05533507 -0.06436126 -0.03832057 -0.065885894 -0.036494892
-0.03020423 0.105232984 -0.06744438 -0.069547296 -0.031778593 -0.03752217 -0.04777186 0.0035748938
0.048468843 0.117422685 0.06863084 0.016343385 -0.096489444 0.089801766 0.20918614 0.10137635
-0.06127057 0.08624078 0.06208124 -0.065958664 0.10483756 0.14907257 -0.07625526 -0.21989399
-0.15446724 0.060619872 -0.065038495 0.030754266 -0.035014704 -0.13974582 -0.07370764 -0.06259243
0.08811512 0.07155012 -0.0035633822 -0.022369297 0.05980174 -0.060744826 -0.0434626 -0.03796096
0.01705311 -0.054198224 -0.14404914 0.02202946 0.055091694 -0.017529653 -0.03446706 -0.02785785
0.03675119 0.09387631 -0.09910682 -0.053931497 0.005723479 0.02339735 -0.0237781 -0.020383488
0.037369266 -0.002975563 0.01700658 0.112339355 0.10345657 0.0856147 0.12988432 0.035935257
0.04621232 0.07263869 0.045910873 -0.03185876 0.0066809175 0.04246516 -0.0875096 -0.00729353
-0.0611524 0.053386874 0.056544688 0.02413784 -0.03288787 -0.002592194 -0.09857934 -0.026265291
00000000: 883b 9b3c c8d5 92bc 26c0 c1bd 2652 f43c
00000010: ce87 2b3d dcf5 54bd 9dc4 5bbb b4f9 d13b
00000020: e150 26bd b210 3c3c d426 c83b 9b09 a53d
00000030: df8a 7f3d 3169 f73c 6bff 5b3d 1770 aabd
00000040: 561c 47bd aa8a d5bc 06e1 9d3d 94bc 8f3d
00000050: 4356 f8bd fc9f 37be 7c58 6ebe d600 26bd
00000060: c4d1 333d cc12 f1bc 284b e0bd 0e2b 06bd
00000070: 7328 dcbd 6dcf a5bd d445 9d3c f472 9cbd
00000080: 1782 c7bd 5166 99bb 8d8a c8bc 6203 7dbd
00000090: d030 7c3d 03c0 6b3d 15e9 9ebd 3c65 7ebd
000000a0: 0083 95bd 6985 d5bd 7ff3 4cbc 705e 863c
000000b0: c535 f53b 6ff1 eebd 7c33 b7bc 7488 003d
000000c0: 219d 0bbe 16c5 90be a591 1a3d fcab c23c
000000d0: 1880 e0bd 3713 a2bd 79cf 3b3d 422c a13d
000000e0: 0a87 293d 554c 46bd 28e4 67bc 2c7b 613b
000000f0: 002c 22be 620f 86bd 87af d3bd ce9d 033d
00000100: 571e 94bc 516b 643c e7bb 633c 8da8 be3d
00000110: 5299 823d 0a0e 7bbd 6e43 30bc 3271 71bb
00000120: a601 c83d bddc db3d 28e6 db3c 87e8 7ebc
00000130: 4014 123d ffbd 863d 5e29 2ebd c354 50bd
00000140: 43c4 e6bc ef8a 363d ef43 f63d 04c4 b63c
00000150: c9a3 73bd 7afb 0dbe 168f 063d e2d4 183d
00000160: 4269 2abe 7277 36be 6441 0ebd e5d4 773d
00000170: f4e0 ec3d e030 da3d 3799 943d dad3 663d
00000180: ed62 373d e18c 893d 0ad2 473d 2847 64bd
00000190: 401b 38bd 737b e8bc 9ff9 8dbc c2d4 1bbe
000001a0: 4633 d0bd 6725 2f3d a0e6 573c c7ee b3bd
000001b0: 1f11 b5bd f39e 10bd 139b 81bd 3a9c bc3c
000001c0: 0b89 003e cbbc c23d 5aaa e93c 78e4 40bc
000001d0: 5243 8f3d c593 27bd 5ef0 83bd 63b6 85bc
000001e0: 3e3b df3b 3fa4 84bd a004 cfbc ea0f d3bd
000001f0: 1e9a 953d 9751 273d 2bdb 683c 1206 3ebd
00000200: c5c2 a83c 7c5d 5e3d 909a b23d 43f7 063d
00000210: 3093 dc3b 6d35 fc3d 5f1b c03d cde3 1ebe
00000220: eb1e 16be 2a20 d4bd 0388 2e3c 7549 04be
00000230: b882 56bd 0e22 3d3b 3551 8e3d 4869 163e
00000240: 153e ecbb 2918 8b3c 31b1 3e3d cf93 543d
00000250: 29bc 6bbc ff2a 32bd 7412 aa3c 33fa a5bd
00000260: 0f81 eebd fd1e 8d3d 21b5 b1bc 1a47 363d
00000270: ce3b fe3c 800d 51bd 477a 83bc 7857 ecbd
00000280: 82e3 d4bb 688d 58bd bc25 763d 45f1 dabc
00000290: 22e1 18be 2ac1 48bd e771 5bbe 4e6c e2bd
000002a0: dae5 39bd b286 95bd 49d0 19bd 07a7 623d
000002b0: d6cf 83bd 08f6 1cbd 2fef 86bd ab7b 15bd
000002c0: dd6e f7bc 6484 d73d 4720 8abd d06e 8ebd
000002d0: 452a 02bd d9b0 19bd 6dac 43bd c448 6a3b
000002e0: 4487 463d 4e7b f03d 538e 8c3d 90e2 853c
000002f0: 429c c5bd fde9 b73d e434 563e 679e cf3d
00000300: d9f6 7abd 029f b03d e648 7e3d 5615 87bd
00000310: 13b5 d63d 7ba6 183e b82b 9cbd e42b 61be
00000320: a92c 1ebe 8b4c 783d e732 85bd 5ff0 fb3c
00000330: 946b 0fbd 8719 0fbe 08f4 96bd 7630 80bd
00000340: b375 b43d df88 923d a287 69bb d13f b7bc
00000350: abf2 743d 91cf 78bd d705 32bd f47c 1bbd
00000360: f7b2 8b3c f5fe 5dbd 9e81 13be 2077 b43c
00000370: d4a7 613d 599a 8fbc 552d 0dbd 2536 e4bc
00000380: 6a88 163d 3942 c03d 84f8 cabd 46e7 5cbd
00000390: 068c bb3b cdab bf3c 4aca c2bc 46fb a6bc
000003a0: 8410 193d aa01 43bb 6251 8b3c 2d12 e63d
000003b0: 0ae1 d33d c356 af3d 6500 053e d930 133d
000003c0: 2149 3d3d 98c3 943d 0a0d 3c3d 557e 02bd
000003d0: 99eb da3b f3ef 2d3d 3c38 b3bd 90fe eebb
000003e0: f07a 7abd 32ac 5a3d 679b 673d b8bc c53c
000003f0: 6eb5 06bd cce1 29bb f7e3 c9bd 4f2a d7bc

features.4.bias f4 [32]
0.05920566 -0.033091053 -0.08115425 0.1339891 -0.061703272 -0.014908963 -0.065249555 0.022467224
0.02153858 -0.099148326 0.0657571 0.14527142 -0.015399379 0.018872065 -0.08057346 0.038166825
0.047058716 -0.061305713 0.010953746 -0.10664252 0.0700033 -0.08835676 0.022783427 -0.02193729
-0.04407745 0.102367796 -0.004218978 0.09569701 -0.0073063252 0.07716026 -0.01841643 0.050358463
00000000: a281 723d 7c8a 07bd 3334 a6bd 7034 093e
00000010: 92bc 7cbd b944 74bc 8fa1 85bd 2f0d b83c
00000020: ad71 b03c 470e cbbd a9ab 863d 08c2 143e
00000030: ad4d 7cbc 9799 9a3c b303 a5bd d154 1c3d
00000040: a4c0 403d b31b 7bbd 5777 333c 6567 dabd
00000050: e45d 8f3d 64f4 b4bd 4fa4 ba3c d5b5 b3bc
00000060: 8e8a 34bd 35a6 d13d 5a3f 8abb cbfc c33d
00000070: e669 efbb 3306 9e3d 0ede 96bc ad44 4e3d

features.5.weight f4 [32]
1.0379866 1.0219778 1.0851686 1.0712197 1.0441831 1.0361644 1.0621051 1.0804586
1.0752615 1.1427373 1.1363554 1.0382391 0.9745849 1.1237969 1.0358928 1.1007059
1.0740206 1.0890348 1.0691098 1.0352229 1.0856836 1.1277672 1.0564787 1.0568924
1.1142081 1.0812097 1.1855613 1.0745295 0.99534625 0.98864245 1.1802338 1.1001767
00000000: bfdc 843f 2bd0 823f cee6 8a3f ba1d 893f
00000010: cba7 853f 09a1 843f 0ff3 873f 784c 8a3f
00000020: 2ba2 893f 3745 923f 1874 913f 05e5 843f
00000030: 657e 793f 94d8 8f3f 2398 843f eee3 8c3f
00000040: 8279 893f 7e65 8b3f 97d8 883f 2f82 843f
00000050: aef7 8a3f ad5a 903f b23a 873f 4048 873f
00000060: 5f9e 8e3f 1465 8a3f 79c0 973f 2f8a 893f
00000070: 03cf 7e3f ac17 7d3f e711 973f 97d2 8c3f

features.5.bias f4 [32]
-0.34240362 -0.21069361 -0.32966718 -0.31685442 -0.28643796 -0.26285553 -0.35086757 -0.16451444
-0.30680883 -0.36238155 -0.21165514 -0.18349051 -0.32835254 -0.38097024 -0.16242252 -0.38331282
-0.33160865 -0.2158541 -0.3992831 -0.30220184 -0.3845265 -0.2390478 -0.21416493 -0.22761896
-0.36449936 -0.2255165 -0.39134637 -0.14260921 -0.3015488 -0.2861998 -0.20894732 -0.36265278
00000000: 874f afbe 11c0 57be 23ca a8be be3a a2be
00000010: ffa7 92be 0095 86be eaa4 b3be 7976 28be
00000020: 0c16 9dbe 138a b9be 20bc 58be f0e4 3bbe
00000030: d31d a8be 880e c3be 1752 26be 9441 c4be
00000040: 9cc8 a9be db08 5dbe d66e ccbe 33ba 9abe
00000050: a8e0 c4be f2c8 74be 0d4e 5bbe f214 69be
00000060: a99f babe cced 66be 8d5e c8be 2608 12be
00000070: 9b64 9abe c888 92be 49f6 55be a0ad b9be

features.5.running_mean f4 [32]
-0.62048084 -0.41875446 -0.24387789 0.28448936 -0.26859367 -0.6041913 -0.5723916 -0.035512336
-0.32535493 0.25608736 -0.23053265 -0.14994206 -0.73115295 0.18104117 0.07309427 -0.17070144
0.3051801 -0.0071297525 -0.68140346 -0.18123403 0.30133158 -0.07551631 -0.20147459 -0.23327021
0.20494927 -0.19803183 0.11589591 0.44802335 -0.5629981 0.09993107 0.053007938 0.10211201
00000000: d5d7 1ebf fc66 d6be 20bb 79be 97a8 913e
00000010: 1c85 89be 48ac 1abf 4288 12bf 6275 11bd
00000020: ec94 a6be e21d 833e c010 6cbe 698a 19be
00000030: d72c 3bbf db62 393e 73b2 953d 5ccc 2ebe
00000040: 9140 9c3e b3a0 e9bb 7570 2ebf 6a95 39be
00000050: 2248 9a3e 4ca8 9abd 5b4f 4ebe 63de 6ebe
00000060: 39de 513e dbc8 4abe d65a ed3d 5163 e53e
00000070: a520 10bf a9a8 cc3d da1e 593d 1a20 d13d

features.5.running_var f4 [32]
0.44665077 0.49535567 0.84028417 0.9460377 0.5124635 0.99142253 0.5585861 0.8340169
0.6222114 0.60594463 0.83981603 0.8058446 0.3228748 0.617552 1.09395 0.65986454
1.0323877 0.7889028 0.22936109 0.35280874 0.64102113 0.643489 0.72362095 0.55789274
0.7997803 0.6297251 0.51466924 0.72388077 0.9402573 0.6051549 0.6826243 0.5903094
00000000: 69af e43e 429f fd3e dd1c 573f 872f 723f
00000010: cf30 033f decd 7d3f 80ff 0e3f 2282 553f
00000020: 3f49 1f3f 301f 1b3f 2ffe 563f d54b 4e3f
00000030: d94f a53e e317 1e3f 8e06 8c3f e2ec 283f
00000040: 4825 843f 89f5 493f a2dd 6a3e 59a3 b43e
00000050: f619 243f b2bb 243f 393f 393f 0fd2 0e3f
00000060: 67be 4c3f aa35 213f 5dc1 033f 4050 393f
00000070: b4b4 703f 6eeb 1a3f 77c0 2e3f 841e 173f

classifier.0.weight f4 [128, 1568]
-0.013801539 0.037812274 -0.04196062 -0.062074058 -0.025960268 -0.004703622 -0.013854278 0.10973929
0.06702948 -0.028921694 -0.11991211 -0.11948034 -0.075654164 0.045164865 0.06015889 0.06535402
0.032997187 -0.0055094245 -0.004672125 0.003014044 -0.026950099 0.0016247553 -0.024266506 -0.08978328
-0.093047194 -0.04034718 -0.015671697 0.002247422 -0.047432385 -0.017814625 -0.009254678 0.005650632
0.007763802 -0.028061261 -0.08278925 0.053186163 -0.07523763 -0.02982548 -0.015686572 0.014350562
0.03955792 -0.041703146 -0.03907128 -0.000681552 -0.016729517 -0.0094079785 -0.008676957 0.0010146847
-0.005517261 0.009604226 0.031940747 0.040202472 0.020442737 0.0691895 -0.035498057 -0.007889811
0.09340573 -0.043459054 -0.060426008 -0.07516862 -0.05546657 0.047090735 -0.03227177 0.033639833
-0.036393277 -0.09281985 -0.020393152 0.08292683 0.004079948 -0.0405303 0.106980205 -0.042541403
-0.06870867 0.06962769 -0.009929908 0.029269725 -0.07275066 0.005142605 -0.015680999 -0.05461289
-0.09653473 0.027029725 -0.020514255 -0.062148914 -0.022999428 0.011308618 -0.074832655 -0.0066747377
0.06874036 -0.04993011 -0.02327567 -0.06915654 -0.06566199 -0.03897826 -0.04617767 0.025491985
0.0018394727 0.013080652 0.010253456 0.0730453 0.10895846 0.08597635 0.11201766 -0.028348709
0.05189797 0.03391714 0.1036245 0.10904189 0.042655885 -0.055204634 0.049186684 0.017649066
0.042338945 0.052166156 -0.035109557 0.046975646 -0.11039494 -0.0018161949 0.0038035575 0.06931522
0.06265886 -0.022544019 0.108338155 -0.11158902 0.11195228 0.06325774 0.025761941 0.010751209
0.02129898 0.033250578 -0.020117478 0.048089527 -0.035936315 -0.006206409 0.036287025 0.023042278
0.02926191 0.064788476 -0.007487543 0.0027219842 0.07984509 0.030995067 -0.034036025 0.030969493
0.062611625 0.08118252 -0.034966413 -0.032688405 0.0033401167 0.026967753 0.04660526 0.07441889
0.012599593 0.036134604 0.0431719 0.027219601 -0.030432837 0.00398593 0.110521056 0.027335115
-0.065445185 0.020195458 -0.047924556 -0.059144296 -0.0123864245 0.00694035 -0.0040693325 0.0039096037
0.08489643 0.0024575256 -0.0153017575 -0.025904572 0.018916998 -0.05141282 0.01242226 0.07953805
0.012408116 -0.0206599 0.014516531 -0.01533005 0.028700475 0.06999052 -0.016105378 0.04128937
-0.050400816 -0.024320584 0.008115869 0.025858872 -0.107832685 0.0564154 -0.008647289 -0.011313818
0.03049287 0.010964983 -0.030128386 -0.04702532 0.018605491 0.08314128 0.12847242 0.011657443
0.051724292 -0.012193311 0.03775119 0.08681952 0.071782105 0.05402133 -0.0028593396 -0.017040497
-0.0023011006 0.014345638 0.068561174 0.073698856 -0.11765455 0.0026476756 -0.06433033 -0.016365116
-0.011150358 0.07592736 0.0044161393 -0.036562663 0.07221461 -0.05501877 0.096923314 0.019866541
-0.0016953731 0.011277116 -0.037287623 0.014978175 -0.017547153 0.04829798 0.022163132 0.034946386
0.019552957 -0.016673457 -0.067619644 -0.010844192 -0.09543264 0.005984199 -0.010304739 -0.05259818
-0.05585196 0.04829494 -0.028891416 0.0068704146 -0.0102823535 0.030864552 -0.03596015 -0.008983469
0.013347084 0.016281495 0.043631334 -0.0079691475 0.053624 -0.032557227 -0.0950719 -0.1396953
00000000: da1f 62bc 0be1 1a3d e6de 2bbd 5e41 7ebd
00000010: a1aa d4bc d720 9abb 0efd 62bc febe e03d
00000020: c146 893d 30ed ecbc 7b94 f5bd 1cb2 f4bd
00000030: 92f0 9abd cbfe 383d 2b69 763d 54d8 853d
00000040: 0f28 073d 6788 b4bb a018 99bb 4487 453b
00000050: 74c6 dcbc bef5 d43a 8dca c6bc 4ce0 b7bd
00000060: 878f bebd 1643 25bd ee61 80bc 7c49 133b
00000070: 7648 42bd faef 91bc efa0 17bc f028 b93b
00000080: 7e67 fe3b bbe0 e5bc 698d a9bd bcd9 593d
00000090: 3016 9abd 9154 f4bc 2081 80bc 9f1e 6b3c
000000a0: 7c07 223d ebd0 2abd 3509 20bd 2eaa 32ba
000000b0: 570c 89bc ec23 1abc cc29 0ebc 2bff 843a
000000c0: 24ca b4bb 0b5b 1d3c 4dd4 023d 59ab 243d
000000d0: 8777 a73c 39b3 8d3d 6966 11bd 4444 01bc
000000e0: 814b bf3d 1f02 32bd 4381 77bd 01f2 99bd
000000f0: ea30 63bd 37e2 403d 672f 04bd ecc9 093d
00000100: 1e11 15bd 5518 bebd 8a0f a7bc 8bd5 a93d
00000110: 16b1 853b 1a03 26bd 7018 db3d e53f 2ebd
00000120: 22b7 8cbd f698 8e3d 0eb1 22bc 10c7 ef3c
00000130: 4cfe 94bd 4c83 a83b 7075 80bc c4b1 5fbd
00000140: 00b4 c5bd 716d dd3c 830d a8bc dc8f 7ebd
00000150: 4c69 bcbc c847 393c dd41 99bd c2b7 dabb
00000160: bfc7 8c3d 8483 4cbd 9eac bebc f2a1 8dbd
00000170: cb79 86bd aba7 1fbd cc24 3dbd 91d4 d03c
00000180: 761a f13a 3b50 563c 1dfe 273c c698 953d
00000190: 9d25 df3d 5e14 b03d 8469 e53d 8d3b e8bc
000001a0: f792 543d b3ec 0a3d 1539 d43d 5b51 df3d
000001b0: f0b7 2e3d 411e 62bd fa77 493d c694 903c
000001c0: 9a6b 2d3d 2eac 553d 0acf 0fbd 8969 403d
000001d0: be16 e2bd 630d eeba 1b45 793b 23f5 8d3d
000001e0: 4a53 803d 3cae b8bc 65e0 dd3d c988 e4bd
000001f0: 3d47 e53d 468d 813d b50a d33c d725 303c
00000200: 337b ae3c c231 083d 69cd a4bc 86f9 443d
00000210: f531 13bd 225f cbbb b4a1 143d 29c3 bc3c
00000220: acb6 ef3c d2af 843d 105a f5bb 5163 323b
00000230: d385 a33d 5ee9 fd3c 5c69 0bbd bcb3 fd3c
00000240: 863a 803d 0543 a63d f138 0fbd 47e4 05bd
00000250: dce5 5a3b 7aeb dc3c 28e5 3e3d ee68 983d
00000260: 866e 4e3c e101 143d 05d5 303d a4fb de3c
00000270: 494e f9bc 679c 823b dd58 e23d e4ed df3c
00000280: 2008 86bd f270 a53c 8a4c 44bd 4a41 72bd
00000290: 6ef0 4abc e06b e33b 0958 85bb 221c 803b
000002a0: 2ede ad3d 700e 213b 39b4 7abc d335 d4bc
000002b0: d2f7 9a3c 4096 52bd bc86 4b3c d8e4 a23d
000002c0: 694b 4b3c f33e a9bc bed6 6d3c e42a 7bbc
000002d0: 421d eb3c 3157 8f3d 6def 83bc 0b1f 293d
000002e0: 1671 4ebd f63b c7bc 6cf8 043c fcd5 d33c
000002f0: 62d7 dcbd d613 673d 5cad 0dbc 985d 39bc
00000300: 2fcc f93c 79a6 333c cecf f6bc 9f9d 40bd
00000310: 8b6a 983c fa45 aa3d 468e 033e dcfe 3e3c
00000320: dadc 533d 74c6 47bc fea0 1a3d 6fce b13d
00000330: 7f02 933d 7845 5d3d c263 3bbb 8398 8bbc
00000340: 10ce 16bb f809 6b3c cd69 8c3d 6def 963d
00000350: def4 f0bd a084 2d3b 9fbf 83bd 2310 86bc
00000360: feaf 36bc ce7f 9b3d 43b5 903b bbc2 15bd
00000370: 41e5 933d 5d5b 61bd bb7f c63d 28bf a23c
00000380: 4837 deba a7c3 383c e8ba 18bd 0567 753c
00000390: 0cbf 8fbc 1ad4 453d 758f b53c f123 0f3d
000003a0: 862d a03c c696 88bc 2b7c 8abd d6ab 31bc
000003b0: 3072 c3bd 1917 c43b 35d5 28bc 3071 57bd
000003c0: 06c5 64bd ead0 453d b1ad ecbc 3721 e13b
000003d0: 5177 28bc a8d7 fc3c f34a 13bd 662f 13bc
000003e0: baad 5a3c c560 853c c5b6 323d 0791 02bc
000003f0: d7a4 5b3d ba5a 05bd 0eb5 c2bd 490c 0fbe

classifier.0.bias f4 [128]
0.075835615 -0.015664317 0.017133929 -0.01840345 -0.026442435 -0.028950525 -0.02036603 0.0039869654
0.020548467 -0.010250473 -0.0154376365 -0.0010817017 0.017734341 0.04839141 -0.019955775 -0.056938652
-0.007875525 0.059204366 -0.008787943 0.02960331 -0.0075128903 -0.0029942307 0.02319068 -0.029460823
-0.04906464 -0.0036736985 -0.011659823 -0.04191824 0.033663437 -0.06179012 0.00056094374 -0.06521506
0.0025385714 -0.026619878 0.004825004 -0.0054351343 -0.012417331 -0.0007456568 0.027311854 0.051153135
-0.006360378 0.00032851181 -0.017747758 -0.021612512 0.014278807 0.013607954 -0.005889012 -0.021095466
-0.02104118 -0.0031691885 -0.01919208 0.031347815 -0.02539632 0.0124788005 -0.026282107 0.021428166
0.0039924346 0.0038976504 -0.03894788 -0.015526741 -0.030715812 -0.01617397 -0.0075006466 -0.020779323
-0.016624132 -0.005808141 0.061779726 -0.0024500045 -0.003143583 0.012488462 -0.011144627 -0.044326343
0.022240862 0.039862555 0.009897972 -0.0017039139 -0.053575747 -0.0074281865 -0.03520461 0.01153664
-0.0021412857 -0.028243236 -0.0014839837 -0.025884578 -0.0089031765 -0.0035629217 -0.049511913 0.020913549
0.052126408 -0.063201055 -0.029278906 0.0088920705 0.006849358 0.02935823 0.006196153 -0.010455379
-0.011329283 0.02440103 0.020161323 0.037145115 0.016078496 -0.027380122 0.0137791075 0.050148442
0.0034862496 0.05359295 0.014499747 -0.03346571 -0.021763105 -0.011113991 -0.020572415 -0.013845706
-0.015530517 0.0057798773 0.0035198815 -0.019140698 -0.009261298 -0.01680191 0.015973099 0.0010510477
-0.029351084 -0.011890391 -0.01531784 -0.017610501 0.0014535955 -0.055668887 -0.014010386 0.012915318
00000000: b44f 9b3d 7452 80bc 745c 8c3c d5c2 96bc
00000010: ce9d d8bc a729 edbc a9d6 a6bc 17a5 823b
00000020: 4255 a83c 9af1 27bc 24ee 7cbc e3c7 8dba
00000030: 9c47 913c 1236 463d 4b7a a3bc 8138 69bd
00000040: 5908 01bc 4780 723d 4efb 0fbc a482 f23c
00000050: b12e f6bb db3a 44bb 62fa bd3c d357 f1bc
00000060: 01f8 48bd 6fc2 70bb d808 3fbc 76b2 2bbd
00000070: ace2 093d a317 7dbd 4c0c 133a 798f 85bd
00000080: 295e 263b ee11 dabc 111b 9e3b 3619 b2bb
00000090: 1072 4bbc 2e78 43ba 1cbd df3c f385 513d
000000a0: b86a d0bb 1c3c ac39 bf63 91bc b90c b1bc
000000b0: a8f1 693c e5f3 5e3c 9df8 c0bb 66d0 acbc
000000c0: 8d5e acbc 29b2 4fbb b538 9dbc 9166 003d
000000d0: f10b d0bc e273 4c3c 934d d7bc 1f8a af3c
000000e0: f8d2 823b b96f 7f3b d087 1fbd df63 7ebc
000000f0: ba9f fbbc 467f 84bc fcc7 f5bb 6639 aabc
00000100: 552f 88bc 3852 bebb bd0c 7d3d 4190 20bb
00000110: 9204 4ebb 689c 4c3c f497 36bc 8a8f 35bd
00000120: 7832 b63c eb46 233d 1b2b 223c dd55 dfba
00000130: 3e72 5bbd 2568 f3bb b632 10bd 2d04 3d3c
00000140: d054 0cbb 5c5e e7bc 3b82 c2ba e50b d4bc
00000150: a1de 11bc e87f 69bb 01cd 4abd e452 ab3c
00000160: 8082 553d 8e6f 81bd 51da efbc 0cb0 113c
00000170: 9470 e03b ac80 f03c 1909 cb3b 0a4d 2bbc
00000180: 759e 39bc abe4 c73c 5c29 a53c 7a25 183d
00000190: 0db7 833c 474c e0bc c4c1 613c 7468 4d3d
000001a0: 9079 643b 4884 5b3d 5990 6d3c 5713 09bd
000001b0: 8a48 b2bc 7517 36bc 7b87 a8bc 1ad9 62bc
000001c0: b673 7ebc 2065 bd3b d0ad 663b f4cc 9cbc
000001d0: b3bc 17bc 29a4 89bc 04da 823c 4fc3 893a
000001e0: af71 f0bc eacf 42bc adf7 7abc e643 90bc
000001f0: 9286 be3a 0f05 64bd d18b 65bc c59a 533c

classifier.3.weight f4 [10, 128]
-0.13837416 0.103086814 -0.027928768 0.08076175 0.056592986 0.03602005 0.066599555 -0.022399358
-0.007120028 0.023610692 0.044227257 0.020948384 0.023123782 -0.16593598 -0.08614818 -0.07483951
0.048131324 -0.06078095 -0.14023268 0.08124735 -0.058121033 -0.016765555 0.072630525 0.083777435
-0.1181248 -0.030272191 -0.030137943 0.06620623 -0.08716258 -0.00048720563 -0.074266985 -0.124866046
0.09023511 0.08685397 0.07129972 0.055149496 0.11539854 -0.16400877 -0.14363554 0.11511944
0.11557515 -0.058644738 -0.06453112 -0.1267152 -0.10479526 0.010483924 0.07394222 0.059898026
-0.024243928 0.054589853 -0.039504554 -0.060431294 0.07597367 0.068243526 -0.059320997 0.009926796
0.0401381 -0.0711168 -0.20813447 -0.086662084 0.01504617 -0.06979545 0.02621265 -0.11998026
0.009806857 -0.035038278 0.042841054 -0.046049528 0.12839335 -0.19141763 0.08093669 0.07215003
0.008224122 -0.058466222 0.039658662 -0.016311865 0.034023937 -0.0052746087 -0.09015348 0.035788607
-0.0016702429 0.028345957 -0.15416586 -0.062481318 0.063256435 -0.018552702 0.052629758 0.10543343
0.073655576 0.07750201 -0.14952366 0.09093345 0.08974234 -0.027188811 -0.12559932 -0.095044665
-0.15400231 0.042436432 -0.16330178 0.119416356 -0.059847433 0.037421294 0.095479585 0.077234976
0.017707722 -0.119942665 -0.25439543 -0.11720417 0.010526038 0.026347082 -0.034609646 -0.1639877
-0.013609104 0.060640924 -0.0018350064 -0.09319107 0.056548063 -0.08925775 0.064451195 -0.062186603
0.061767105 0.028655658 0.14177646 -0.020637536 -0.004319004 -0.026649514 -0.08587952 0.111099415
0.13807605 -0.053147364 0.068944946 -0.027086211 -0.24696958 -0.07764141 -0.17068896 0.14254072
-0.118851624 -0.060756687 0.07340632 0.055489663 0.07330998 0.11239223 0.045237675 -0.041231666
-0.08056643 0.11549237 0.05970609 0.09029709 -0.081908956 -0.07425159 -0.10016324 -0.063416526
-0.033780284 -0.093010485 -0.01404457 -0.11347411 0.09442774 -0.036485065 0.0072766235 -0.08211766
0.026526459 -0.10064442 -0.10023094 0.06433642 0.05559151 0.062201798 0.050752096 0.10926262
-0.05089901 0.07361222 -0.03278985 -0.1589859 0.074951716 -0.03540725 0.039952125 -0.08224958
0.06387931 0.013056966 -0.13681604 0.11057369 0.0044971714 -0.12189304 -0.08073415 0.034424637
-0.021916961 0.0016291154 0.026512329 -0.026066948 0.009272536 -0.09303829 0.060077995 -0.061575685
0.023830153 0.017958293 0.06807236 0.027713286 -0.05085606 0.083411224 0.017501056 -0.13111094
0.04232403 0.108412825 0.06490087 -0.0101140905 -0.24655493 -0.033487912 -0.20013878 -0.0021412526
-0.042333655 0.027149798 0.039016142 0.06315629 -0.18093266 0.04711476 -0.15803933 -0.22956446
0.08518535 -0.06243519 -0.005064151 0.056759275 -0.17625251 0.08978803 0.07556421 -0.16063404
-0.1873547 0.00894564 0.10106349 0.12227947 0.06191774 0.029366165 0.089789174 0.107108176
-0.055506635 0.17415658 0.010990955 -0.0062378743 0.07245999 0.09289228 -0.0013623739 -0.026388282
-0.18876152 -0.09577281 -0.1349804 -0.022872513 -0.20608728 -0.07928178 0.024776543 0.037221644
0.048559163 -0.02202478 0.032418918 -0.11099784 0.051066834 -0.061817367 0.055584904 -0.065087944
00000000: f5b1 0dbe 2e1f d33d dfca e4bc 6b66 a53d
00000010: 0cce 673d c389 133d 5965 883d dc7e b7bc
00000020: 204f e9bb 366b c13c a427 353d f29b ab3c
00000030: 166e bd3c 1feb 29be 756e b0bd 7545 99bd
00000040: 5a25 453d 72f5 78bd 2899 0fbe 0365 a63d
00000050: 5210 6ebd eb57 89bc 50bf 943d 8193 ab3d
00000060: 6aeb f1bd 63fd f7bc d9e3 f6bc 2297 873d
00000070: 4b82 b2bd a26f ffb9 4a19 98bd c5b9 ffbd
00000080: 2fcd b83d 7fe0 b13d 9605 923d 70e4 613d
00000090: 1256 ec3d eaf1 27be 3215 13be bec3 eb3d
000000a0: aab2 ec3d 7735 70bd e428 84bd a1c1 01be
000000b0: e69e d6bd c4c4 2b3c 056f 973d a257 753d
000000c0: 349b c6bc 9c99 5f3d 87cf 21bd ce86 77bd
000000d0: 1598 9b3d 43c3 8b3d 93fa 72bd 00a4 223c
000000e0: d967 243d afa5 91bd 3421 55be e47b b1bd
000000f0: 3684 763c ebf0 8ebd e9bb d63c 36b8 f5bd
00000100: f1ac 203c 4c84 0fbd 1a7a 2f3d 6e9e 3cbd
00000110: 8c79 033e fc02 44be 23c2 a53d 65c3 933d
00000120: 78be 063c 477a 6fbd 1f71 223d 76a0 85bc
00000130: af5c 0b3d a0d6 acbb 63a2 b8bd 1397 123d
00000140: 0dec daba c835 e83c a8dd 1dbe 69ec 7fbd
00000150: 978c 813d d6fb 97bc 4d92 573d 7bed d73d
00000160: bcd8 963d 60b9 9e3d bb1c 19be 513b ba3d
00000170: d5ca b73d 12bb debc 1c9d 00be c7a6 c2bd
00000180: c8b2 1dbe d3d1 2d3d 9538 27be 9090 f43d
00000190: 9522 75bd 1247 193d cd8a c33d 5f2d 9e3d
000001a0: c90f 913c 80a4 f5bd 1e40 82be bd08 f0bd
000001b0: 6775 2c3c d6d5 d73c d8c2 0dbd 64ec 27be
000001c0: b8f8 5ebc 9e62 783d 9984 f0ba f6da bebd
000001d0: f19e 673d c4cc b6bd fdfe 833d 61b7 7ebd
000001e0: 81ff 7c3d 45bf ea3c d92d 113e 0d10 a9bc
000001f0: 6e86 8dbb 1550 dabc 9ae1 afbd 1788 e33d
00000200: cf63 0d3e 0db1 59bd 0233 8d3d e7e3 ddbc
00000210: 98e5 7cbe 7602 9fbd 16c9 2ebe 32f6 113e
00000220: 7b68 f3bd 01dc 78bd 0d56 963d 2149 633d
00000230: 8b23 963d e62d e63d 244b 393d 89e2 28bd
00000240: 0300 a5bd 4487 ec3d 5f8e 743d aeed b83d
00000250: e2bf a7bd 3811 98bd 6322 cdbd 86e0 81bd
00000260: 325d 0abd 487c bebd 321b 66bc 1d65 e8bd
00000270: 5563 c13d 5d71 15bd be70 ee3b 4e2d a8bd
00000280: 044e d93c a91e cebd e145 cdbd d0c2 833d
00000290: ecb3 633d 50c7 7e3d 6ee1 4f3d 15c5 df3d
000002a0: 7b7b 50bd 01c2 963d a64e 06bd 33cd 22be
000002b0: 4980 993d 3107 11bd d7a4 233d 7872 a8bd
000002c0: 28d3 823d e2ec 553c 8119 0cbe 7574 e23d
000002d0: 025d 933b 0fa3 f9bd f257 a5bd d900 0d3d
000002e0: 338b b3bc 0b88 d53a 6230 d93c 5a8a d5bc
000002f0: d6eb 173c dc8a bebd 5814 763d c936 7cbd
00000300: 7437 c33c 451d 933c 8569 8b3d f906 e33c
00000310: 724e 50bd 81d3 aa3d 605e 8f3c f241 06be
00000320: f65b 2d3d 8b07 de3d bfea 843d 92b5 25bc
00000330: e578 7cbe 9f2a 09bd 2ef1 4cbe 4254 0cbb
00000340: 0e66 2dbd 4169 de3c 64cf 1f3d 1658 813d
00000350: 6946 39be 68fb 403d 10d5 21be f212 6bbe
00000360: a875 ae3d 0bbc 7fbd 2df1 a5bb 6a7c 683d
00000370: 8a7b 34be c9e2 b73d 69c1 9a3d 407d 24be
00000380: e9d9 3fbe bc90 123c 60fa ce3d a96d fa3d
00000390: 759d 7d3d 5091 f03c 63e3 b73d 885b db3d
000003a0: ed5a 63bd 1a56 323e 6813 343c 1567 ccbb
000003b0: e765 943d 4f3e be3d af91 b2ba 3d2c d8bc
000003c0: b34a 41be 8924 c4bd 4d38 0abe 235f bbbc
000003d0: 8b08 53be 7c5e a2bd 2df8 ca3c b975 183d
000003e0: f9e5 463d 506d b4bc b3c9 043d d652 e3bd
000003f0: 752b 513d 3534 7dbd ffac 633d d44c 85bd

classifier.3.bias f4 [10]
0.06127224 0.03721137 -0.08899071 0.02128376 0.050713018 0.067130424 -0.007924775 -0.10110292
-0.05473371 0.097817354
00000000: 9af8 7a3d f36a 183d c340 b6bd 485b ae3c
00000010: 74b8 4f3d ad7b 893d ead6 01bc 0c0f cfbd
00000020: 7430 60bd 7754 c83d
