ARTIFICIAL_INTELLIGENCE/Tensor_&_Setup/mnist_model.pth (torch, 440645 bytes, 6 tensors)

net.0.weight f4 [128, 784]
0	0x3ca8c346	0.020600926
1	0x3cabfffe	0.02099609
2	0xbceb0ee3	-0.028693622
3	0x3ce89152	0.028389607
4	0xbcf1da3e	-0.029523011
5	0x3d06cb0f	0.032908496
6	0x3c60ef90	0.013728991
7	0x3c09cefc	0.008411165
8	0xbd09a274	-0.033602193
9	0x3cf206ca	0.029544253
10	0x3d01e689	0.031713996
11	0xbbb1b924	-0.005423682
12	0xbd0294d7	-0.031880226
13	0xbd59d744	-0.05318381
14	0x3cbec3a0	0.02328664
15	0xbd036290	-0.03207642
16	0xbcceffc0	-0.025268435
17	0xbba3bfb8	-0.00499722
18	0x3cd6375e	0.026149448
19	0x3bd565a0	0.006512359
20	0xbb123bb0	-0.0022313409
21	0xbcaf21aa	-0.021378357
22	0x3c4f77e4	0.0126628615
23	0x3cf026d2	0.029315386
24	0xbca72edc	-0.020408086
25	0x3ccdf10c	0.025139354
26	0xbd0ec3af	-0.034854587
27	0xbc90d5b7	-0.017680032
28	0x3cedb2fe	0.029016014
29	0xbcd5bbec	-0.026090585
30	0xbcf70643	-0.030154353
31	0xba832fc0	-0.0010008737
32	0x3b1f3460	0.0024292693
33	0xbd4f6584	-0.050633922
34	0xbda94726	-0.082655236
35	0xbd8e5427	-0.069496445
36	0xbdd8e4a9	-0.105904885
37	0xbdc39a31	-0.09550894
38	0xbe081de4	-0.13292652
39	0xbdac407c	-0.08410737
40	0xbd8ce7b4	-0.06880131
41	0xbe0c3157	-0.13690697
42	0xbe15ca1c	-0.1462788
43	0xbdd8b7a1	-0.105818994
44	0xbe1da0ec	-0.15393418
45	0xbdef8961	-0.11696125
46	0xbe328519	-0.17433585
47	0xbdd4c4e0	-0.103891134
48	0xbdc561bd	-0.09637783
49	0xbd7dfdca	-0.06200961
50	0xbcbb9faf	-0.022903292
51	0xbd91d9ca	-0.07121618
52	0x3caa0762	0.020755474
53	0x3b4e8cd0	0.0031517036
54	0xbc2566ee	-0.010095341
55	0x3c27c7e4	0.010240529
56	0xbcf7e6a3	-0.030261343
57	0xbcee13d8	-0.029062197
58	0xbd9e2c2f	-0.07723271
59	0xbd37a2dd	-0.044833053
60	0xbdafed76	-0.08590214
61	0xbd55219f	-0.052034017
62	0xbdca3c61	-0.098747976
63	0xbdc38064	-0.09545973
64	0xbe4c507a	-0.19952574
65	0xbe2d9de7	-0.16954766
66	0xbe71e0c4	-0.23620898
67	0xbe7901a8	-0.24317038
68	0xbe740452	-0.23829773
69	0xbe916b56	-0.28402203
70	0xbe7818c5	-0.24228199
71	0xbdef298e	-0.11677848
72	0xbdc2cab9	-0.095113225
73	0xbd5bc5df	-0.0536555
74	0xbdee43a5	-0.11633996
75	0xbe427e6f	-0.18993543
76	0xbe0f63c5	-0.14002903
77	0xbe18ce9a	-0.14922562
78	0xbd9b4fb6	-0.07583563
79	0xbe00c5ad	-0.12575407
80	0xbc5295b1	-0.012853072
81	0xbceafdf8	-0.028685555
82	0x3ceb4c42	0.028722886
83	0xbcddd53e	-0.02707922
84	0xbc3d041c	-0.011536624
85	0x3d120983	0.035653602
86	0xbdc068db	-0.093949996
87	0xbdca3562	-0.09873463
88	0xbd9d333d	-0.076757886
89	0xbe0cd74d	-0.13754006
90	0xbe64a71c	-0.22329372
91	0xbe85cd42	-0.26133162
92	0xbe7f5ab0	-0.24936938
93	0xbe9060f3	-0.28198966
94	0xbebfe544	-0.37479603
95	0xbe37e50d	-0.1795847
96	0xbe2a3750	-0.16622663
97	0xbea5e7b9	-0.32403353
98	0xbe8fd07b	-0.28088745
99	0xbca75799	-0.020427512
100	0x3c8732c5	0.016503701
101	0x3cf26cfd	0.029592985
102	0x3dd895a1	0.105754144
103	0x3ded8506	0.11597638
104	0x3d55b7ab	0.052177113
105	0x3d029fd2	0.031890698
106	0x3b5a162e	0.003327738
107	0xbe0134be	-0.12617776
108	0xbdc1d213	-0.094638966
109	0xbd29c8e4	-0.04145135
110	0x3c9567a2	0.018237893
111	0x3ccb9d60	0.024855316
112	0x3b9d1f98	0.004795026
113	0x3c66ddd4	0.014090974
114	0xbdcd6ddc	-0.1003072
115	0x3cd0610b	0.025436899
116	0xbcd50ef3	-0.026008105
117	0xbda60ea8	-0.08108264
118	0xbe78e31f	-0.2430539
119	0xbe35952e	-0.17732689
120	0xbe31e5f7	-0.17372881
121	0xbe5c19ec	-0.21494263
122	0xbe974485	-0.29544464
123	0xbe42f4dc	-0.19038719
124	0xbe89b895	-0.26898637
125	0xbe87ca25	-0.26521412
126	0xbe37864b	-0.17922322
127	0xbd9b4029	-0.07580597
128	0xbda01e41	-0.078182705
129	0xbd1a611e	-0.037690274
130	0xbca8e683	-0.020617729
131	0xbde7baf5	-0.11314956
132	0xbccb223b	-0.024796596
133	0xbd0359ce	-0.032068066
134	0x3d26f144	0.040757433
135	0x3c51f15d	0.012813893
136	0x3c87b5f6	0.016566258
137	0xbdb7fcb7	-0.089837484
138	0xbd8e1d73	-0.06939211
139	0xbe0253dd	-0.12727304
140	0x3c6ee480	0.014580846
141	0xbcf587ee	-0.029972043
142	0xbd89c938	-0.067278326
143	0xbd423a8b	-0.047419112
144	0xbd5521d4	-0.052034214
145	0xbdf7a2c1	-0.1209159
146	0xbe0c20a4	-0.13684326
147	0xbdc0fa76	-0.09422772
148	0xbd95c04c	-0.07312068
149	0xbd91f64b	-0.07127055
150	0xbda42dd5	-0.08016554
151	0xbcdd8ae4	-0.027043767
152	0xbe0be8e9	-0.13663067
153	0xbe46e8a2	-0.1942468
154	0xbe1d3a48	-0.15354264
155	0xbe6ec714	-0.2331813
156	0xbe2fe731	-0.17178036
157	0xbdf8a099	-0.121400066
158	0xbe2dc8ad	-0.16971083
159	0xbe23bc33	-0.15989761
160	0xbdfe3b03	-0.12413599
161	0xbdb942d8	-0.090459526
162	0xbd57a9eb	-0.05265228
163	0xbd8a8117	-0.06762903
164	0xbdd1bae9	-0.102407284
165	0xbdc4bee1	-0.0960672
166	0xbd8c7528	-0.06858283
167	0xbdc7d24f	-0.0975691
168	0xbcde0885	-0.027103672
169	0xbcf0a5d8	-0.029375955
170	0x3e32c519	0.17458
171	0x3ce23f46	0.027618062
172	0x3cb58cbf	0.02216184
173	0x3d5453d0	0.051837742
174	0xbd4382ea	-0.04773227
175	0xbd4f7bd9	-0.05065522
176	0xbc180810	-0.009279266
177	0x3d3f3df3	0.04668994
178	0x3d14f4a7	0.03636613
179	0x3cd1f3b5	0.025628904
180	0xbd8f24dc	-0.06989452
181	0xbd885b83	-0.066580795
182	0xbcc23479	-0.023706662
183	0xbd96e037	-0.07366984
184	0xbe30a464	-0.1725021
185	0xbdbedc4e	-0.093193635
186	0xbded1d3c	-0.11577842
187	0xbd4dbbf5	-0.050228078
188	0xbd15b4b0	-0.03654927
189	0xbdf1faea	-0.11815436
190	0xbdb3cfb0	-0.087798476
191	0xbdaff54b	-0.08591708
192	0xbd9ccf0d	-0.07656679
193	0xbc034845	-0.008012836
194	0x3d21e672	0.03952641
195	0xbd973773	-0.07383623
196	0x3c0ee701	0.008722068
197	0x3dc29d0e	0.09502612
198	0x3e19144a	0.14949146
199	0x3d2a200c	0.04153447
200	0xbd351fcd	-0.04421978
201	0x3cdfa37f	0.02729964
202	0x3b9488f2	0.0045329267
203	0x3d8b7715	0.068098225
204	0x3da75ddd	0.081722
205	0x3dbae77c	0.091261834
206	0x3d932694	0.071850926
207	0x3b16cd51	0.0023010562
208	0x3d071835	0.03298207
209	0x3e02c3b4	0.12769967
210	0x3d999ff0	0.07501209
211	0x3d9490f3	0.07254209
212	0x3c4c6998	0.012476347
213	0x3bb51651	0.005526342
214	0xbca90277	-0.020631058
215	0x3b94b725	0.004538434
216	0xbd02f424	-0.031971112
217	0xbcf66f16	-0.030082267
218	0x3d14ddaa	0.036344208
219	0x3c2e4843	0.010637346
220	0x3d532979	0.051553223
221	0xbc1d01da	-0.009582961
222	0x3d0c502b	0.03425614
223	0xbd0233e3	-0.031787764
224	0xbdf1bd9c	-0.11803743
225	0x3c015b0f	0.007895245
226	0x3e0f0ab9	0.13968934
227	0xbc1e28c3	-0.009653273
228	0xbd15eef7	-0.036604848
229	0x3d87bfbf	0.066283695
230	0x3c929232	0.017891977
231	0xbb107a3a	-0.002204551
232	0x3d788c40	0.060680628
233	0x3d9083d2	0.07056393
234	0x3bec97a4	0.0072202254
235	0x3d94913d	0.072542645
236	0x3da1d5fd	0.07902143
237	0x3da9ca3b	0.082905255
238	0x3da347bf	0.07972669
239	0x3e013147	0.12616454
240	0x3e30243c	0.17201322
241	0x3e09ad86	0.134451
242	0x3c61c5bd	0.013780055
243	0xbc77a5d1	-0.015115217
244	0x3cb52a1c	0.022114806
245	0x3d3fcf5c	0.046828613
246	0x3d6b6f24	0.05747904
247	0x3cd67fd0	0.026183993
248	0x3e6d8da4	0.23198563
249	0x3e36ebfc	0.17863458
250	0x3c0b30c5	0.008495514
251	0x3dc5e350	0.09662497
252	0x3e1ebd8f	0.15501998
253	0x3d8bf426	0.06833677
254	0x3d7ec298	0.062197298
255	0xbdc6ca1c	-0.09706518

net.0.bias f4 [128]
0	0x3e457511	0.19282939
1	0xbc8f5c33	-0.017500019
2	0xbcec8aa0	-0.028874695
3	0x3d834614	0.06409851
4	0x3bc5a0ef	0.0060311477
5	0xbdb55a5f	-0.088551275
6	0x3ccfa4d1	0.025347145
7	0x3d56b327	0.052416947
8	0x3e56e5f6	0.2098616
9	0x3ce58663	0.028018182
10	0xbdbc0b46	-0.09181838
11	0xbc9a5238	-0.018838033
12	0xbd6c6e98	-0.057722658
13	0x3c84e2c2	0.016221408
14	0x3cb1da21	0.021710457
15	0xbd559b76	-0.052150212
16	0xbb10f288	-0.0022117216
17	0xbd843c90	-0.06456864
18	0x3da366bd	0.0797858
19	0xbdcae9b6	-0.09907858
20	0x3ca1c601	0.019747736
21	0x3d2d7124	0.042344227
22	0x3e283a80	0.16428566
23	0x3d8db6e2	0.06919648
24	0x3d6450b8	0.055741042
25	0x3c749f2f	0.01493053
26	0xbd6bdbe2	-0.057582743
27	0x3d70c46b	0.05878107
28	0xbb52baf5	-0.0032154892
29	0x3d2f5230	0.04280299
30	0x3d7a0317	0.061038103
31	0xbcb39486	-0.021921407
32	0x3d90fc34	0.07079354
33	0xbc01f6f3	-0.007932412
34	0xbd3db188	-0.046311885
35	0xbc29e188	-0.010368712
36	0x3b30726a	0.0026923665
37	0x3c379ad9	0.011206352
38	0x3d7c9be5	0.06167211
39	0x3d96e98d	0.07368765
40	0xbc914f6d	-0.017738068
41	0x3c9b40d3	0.018951809
42	0x3dfc8593	0.12330165
43	0x3d2c7f65	0.04211368
44	0x3d80174b	0.06254443
45	0x3d0f842b	0.035038155
46	0xbd564b7c	-0.05231808
47	0x3cbff5e8	0.023432687
48	0x3ccd1607	0.025034918
49	0xbd861fb2	-0.06549014
50	0x3dcea5d1	0.10090221
51	0xbcf92e81	-0.030417683
52	0x3e07bd3a	0.13255778
53	0x3d35c18b	0.04437403
54	0x3d1b514a	0.03791932
55	0x3e10364f	0.14083217
56	0xbccd6e83	-0.02507711
57	0xbcdbe7fd	-0.02684402
58	0xbbd5e63a	-0.0065276893
59	0xbcee123e	-0.029061433
60	0xbc13b081	-0.00901425
61	0xbce3dae8	-0.027814344
62	0x3d0d46b4	0.034491256
63	0xbd8359a3	-0.06413581
64	0xbcb00776	-0.021487933
65	0xbd96df7d	-0.07366846
66	0xbda0f07d	-0.078583695
67	0x3dc84f8a	0.09780796
68	0xbb65d77f	-0.0035071073
69	0x3b722868	0.0036950354
70	0x3d52b454	0.051441506
71	0x3c35925f	0.011082261
72	0x3ddf6eac	0.10909781
73	0xbdbbb126	-0.09164648
74	0x3d8cc34f	0.0687319
75	0x3d2f5dac	0.04281394
76	0x3dbab745	0.09116987
77	0x3b97cb8a	0.004632418
78	0xbd9d5037	-0.076813154
79	0x3d99154a	0.07474764
80	0xbd67425e	-0.056459777
81	0x3cd817dd	0.026378566
82	0xbb940514	-0.004517207
83	0xbe2da083	-0.16955762
84	0xbc6209aa	-0.013796249
85	0x3da5e1fc	0.08099744
86	0x3e06b252	0.13153961
87	0x3e08ef94	0.13372642
88	0x3e590b62	0.21195748
89	0x3d9b0007	0.075683646
90	0x3af47ce7	0.0018652946
91	0x3d127f18	0.035765737
92	0xbd3a5000	-0.04548645
93	0xbd3dbd88	-0.04632333
94	0x3d8c92e5	0.068639554
95	0x3d21ac72	0.039471097
96	0x3d83387f	0.0640726
97	0xbbf17fa7	-0.0073699537
98	0x3db0fdf5	0.086421885
99	0xbc0e8123	-0.008697781
100	0xbcc37f68	-0.023864463
101	0xbcaca835	-0.021076301
102	0xbd1abd80	-0.037778378
103	0x3d139445	0.036030073
104	0x3d4a6999	0.049417112
105	0x3d807db0	0.06273973
106	0xbd8257c5	-0.06364397
107	0x3ca6afb1	0.020347448
108	0x3da18975	0.07887546
109	0xbcf82030	-0.030288786
110	0x3dbedf02	0.09319879
111	0xbdc986ca	-0.09840162
112	0xbd0ceb64	-0.034404173
113	0x3cce77c6	0.025203597
114	0x3d38155b	0.04494224
115	0x3cbc185c	0.022960834
116	0x3dedc91b	0.116106234
117	0x3c98e5d4	0.018664278
118	0x3c113d37	0.008864692
119	0x3c8bc72c	0.017062746
120	0xbd20eaaa	-0.039286293
121	0x3de31900	0.11088753
122	0xbca2317a	-0.019798983
123	0x3da318a3	0.079636835
124	0x3dc50122	0.09619357
125	0x3e3cb319	0.18427695
126	0x3da32163	0.079653524
127	0x3e7e2134	0.24817353

net.2.weight f4 [64, 128]
0	0x3e1392f8	0.14411533
1	0xbcd21383	-0.02564407
2	0x3bbc073c	0.005738167
3	0x3e084123	0.13306098
4	0x3c001407	0.007817275
5	0xbe4d7f00	-0.20067978
6	0xbc81fbca	-0.015867133
7	0x3d82f7ba	0.06394906
8	0x3e1b2570	0.15151
9	0xbd7ee305	-0.06222822
10	0x3daab489	0.083352156
11	0x3bbd622d	0.0057795257
12	0x3bf7a7b1	0.007557832
13	0x3ca5a1e9	0.020218806
14	0xbdf3db30	-0.11907041
15	0x38d1586a	9.982365e-05
16	0xbe5523fe	-0.20814511
17	0x3d992548	0.07477814
18	0x3cefb0c7	0.029259099
19	0x3c03cced	0.008044464
20	0x3dda134b	0.10648211
21	0x3da87774	0.08225909
22	0x3d90481c	0.07045004
23	0xbd6d9cd7	-0.058010902
24	0x3e4f59d7	0.20249115
25	0x3d3bd897	0.045860853
26	0x3cc235ad	0.023707235
27	0x3d6194e6	0.05507364
28	0xbdd7c74c	-0.1053606
29	0xbd68eff7	-0.056869473
30	0xbe8ca645	-0.27470604
31	0xbd1b5ef1	-0.03793234
32	0x3d0b7734	0.034049228
33	0xbe205090	-0.15655732
34	0xbce5d02b	-0.028053364
35	0xbbe50e1c	-0.0069902074
36	0x3e0a6052	0.13513306
37	0x3ceed11f	0.029152451
38	0xbe841d90	-0.25803804
39	0x3d4e69e9	0.050393973
40	0x3d73d910	0.05953318
41	0x3da662ac	0.08124289
42	0xbe6fe924	-0.2342878
43	0xbdc72860	-0.09724498
44	0x3d79bb7a	0.060969807
45	0x3db81c0d	0.08989725
46	0xbe741a65	-0.23838194
47	0x3e104ea0	0.14092493
48	0x3e5288a0	0.20559931
49	0x3d0d953a	0.03456614
50	0x3e03d223	0.1287313
51	0xbd0a85ba	-0.033818938
52	0xbde3e463	-0.11127546
53	0x3debfe65	0.11523131
54	0x3de3d398	0.11124343
55	0x3df193ea	0.117957905
56	0x3dcd07d7	0.10011261
57	0xbc5bad67	-0.013408042
58	0x3d8a1630	0.06742513
59	0xbc2dc18d	-0.010605228
60	0x3db85d8e	0.09002219
61	0xbbaf0993	-0.0053417175
62	0xbe3a5eb9	-0.18200196
63	0xbe085af1	-0.13315941
64	0x3d99aa46	0.0750318
65	0xbd3eb533	-0.046559524
66	0xbdf69872	-0.120407954
67	0x3d4421e2	0.047883876
68	0xbe07e04c	-0.13269156
69	0x3d347ba3	0.04406322
70	0x3dd499eb	0.1038092
71	0x3d36cd11	0.04462916
72	0x3c8b6f2e	0.017020788
73	0x3ce63161	0.028099718
74	0x3dda69f8	0.10664743
75	0x3dc03b0a	0.09386261
76	0xbe00be88	-0.12572682
77	0x3dd2276e	0.10261427
78	0xbd9b43cd	-0.07581291
79	0x3df56be8	0.11983472
80	0x3ceb55f4	0.02872751
81	0x3e2728f6	0.16324219
82	0x3dea3cbe	0.11437367
83	0x3c853b9b	0.016263774
84	0x3db07bdd	0.08617375
85	0x3df62a17	0.12019747
86	0x3cfe3950	0.031033188
87	0x3d7a948b	0.061176818
88	0x3d2576d9	0.040396545
89	0x3dc61411	0.09671796
90	0x3cf35588	0.02970387
91	0x3ca6223a	0.020279992
92	0x3da2af12	0.07943548
93	0xbe124e99	-0.14287795
94	0xbd5b289d	-0.05350553
95	0xbd79dc70	-0.06100124
96	0x3c94a81b	0.018146565
97	0xbd61f733	-0.05516739
98	0x3e31254b	0.17299382
99	0xbdf635ad	-0.120219566
100	0x3dade9f3	0.08491888
101	0x3d3be2ad	0.04587047
102	0xbcb7d1bc	-0.022438876
103	0x3e9efcd2	0.31052262
104	0x3ca9ff0b	0.020751497
105	0xbe169bde	-0.14707896
106	0xbd5a317a	-0.05326984
107	0xbd729535	-0.059224326
108	0x3e1e904a	0.1548473
109	0x3d01b902	0.031670578
110	0x3e2b6d61	0.16740943
111	0xbd69d32d	-0.05708616
112	0xbd085664	-0.033285514
113	0x3df6bbca	0.12047537
114	0xbddd049b	-0.10791894
115	0x3d1c6532	0.038182445
116	0xbe06adca	-0.13152233
117	0x3d8885fa	0.06666179
118	0x3d6befc3	0.0576017
119	0xbdd2757a	-0.10276313
120	0x3da51926	0.08061437
121	0x3d691d13	0.056912493
122	0xbcc485bc	-0.02398955
123	0xbe1e543c	-0.1546182
124	0xbe0eafa5	-0.1393419
125	0xbdc4f7d7	-0.09617584
126	0xbab89c85	-0.0014084732
127	0x3e99ac2c	0.3001417
128	0xbd4e2afc	-0.05033396
129	0xbce25bbd	-0.027631635
130	0x3de166ce	0.110059366
131	0xbd4e9dda	-0.050443508
132	0x3e0bd22a	0.1365439
133	0xbe838d1f	-0.25693604
134	0xbd3239cf	-0.04351216
135	0x3dbef2d1	0.09323657
136	0x3df7374e	0.120710954
137	0x3e0752a2	0.13215116
138	0x3d546216	0.051851355
139	0xbd07d5c8	-0.033162862
140	0x3dfdce8c	0.12392911
141	0xbd131631	-0.035909835
142	0xbdac5a62	-0.08415677
143	0x3c9e08df	0.01929134
144	0xbe285a5c	-0.1644072
145	0x3c1de3a6	0.009636795
146	0xbd4f3132	-0.050584026
147	0xbc7d2f0d	-0.015453112
148	0x3e12f97d	0.14352985
149	0x3dbdbcfd	0.09264562
150	0x3cdbc643	0.026827937
151	0x3d03247e	0.032017224
152	0x3e0e8ae2	0.13920167
153	0x3e03cd81	0.12871362
154	0x3d0dbded	0.034604955
155	0xbe69758e	-0.2279875
156	0xbe233d60	-0.15941381
157	0xbe022d7c	-0.12712663
158	0xbe90afee	-0.28259224
159	0x3daecbfb	0.08535
160	0x3dc3afdd	0.09555028
161	0xbc813daf	-0.015776483
162	0x3df4613a	0.11932607
163	0x3c0fd6f9	0.008779281
164	0x3d8c4cc1	0.06850577
165	0xbd914a5f	-0.07094263
166	0x3d1a65d4	0.037694767
167	0xbdc4596a	-0.09587367
168	0x3de5dc88	0.112237036
169	0x3d64ae90	0.05583054
170	0xbe97bf07	-0.2963793
171	0xbe05ca30	-0.1306541
172	0xbdcfce6a	-0.10146792
173	0x3e1b8357	0.15186821
174	0x3dbd1fe6	0.092346
175	0x3e2a60a4	0.16638428
176	0x3e0f3197	0.13983761
177	0x3d84b671	0.064801104
178	0x3db857e2	0.09001137
179	0x3d07734c	0.03306894
180	0xbd95ee8b	-0.07320889
181	0x3d6930b5	0.056931216
182	0xbbfb7128	-0.0076734014
183	0x3cc96d18	0.024588153
184	0xbc20dd52	-0.009818392
185	0x3d551ead	0.052031208
186	0x3dde7da9	0.108638115
187	0xbd919cd0	-0.07109988
188	0xbcf34fd2	-0.029701147
189	0x3ba3d172	0.004999333
190	0xbd7f4e5e	-0.062330596
191	0xbdd1e3ce	-0.102485284
192	0xbd331405	-0.043720264
193	0xbde400cf	-0.11132967
194	0x3d438c56	0.047741257
195	0x3dec6e37	0.11544459
196	0x3de48c5a	0.111595824
197	0x3e1e2715	0.15444596
198	0x3d905a85	0.07048515
199	0xbc402775	-0.011728157
200	0x3d5d6791	0.054053847
201	0x3d20d94f	0.03926974
202	0xbe08579e	-0.13314673
203	0xbd178b93	-0.036998343
204	0x3b6158ca	0.0034385198
205	0xba9a5abd	-0.001177631
206	0x3be3b552	0.0069491053
207	0xbdec3331	-0.115332015
208	0x3e63dd56	0.22252402
209	0xbc9d682d	-0.019214714
210	0x3e6edf93	0.23327474
211	0xbd0c1f95	-0.034209806
212	0x3d848b68	0.06471902
213	0xbdee7c6d	-0.11644826
214	0xbdd3be95	-0.10339085
215	0x3b912717	0.0044297087
216	0x3c892563	0.01674146
217	0xbd3f3fb2	-0.046691604
218	0xbd10590d	-0.035241175
219	0xbe0dd23c	-0.1384973
220	0x3e250e9b	0.16118853
221	0xbe0151d9	-0.12628879
222	0xbde5f831	-0.112289794
223	0x3d75e428	0.06003204
224	0xbe84ea26	-0.2595989
225	0x3db6e637	0.08930629
226	0x3d8b9513	0.06815543
227	0x3cb174eb	0.021662196
228	0x3d0b0f53	0.03395016
229	0x3d8721ce	0.065982446
230	0x3d6b8a55	0.05750497
231	0x3def679f	0.11689686
232	0x3cbd9762	0.023143474
233	0xbe37a451	-0.17933775
234	0xbb1359cc	-0.0022483943
235	0xbdcf43a1	-0.10120321
236	0x3e17107c	0.14752382
237	0x3e2d769e	0.1693978
238	0xbc1b37a3	-0.009473714
239	0x3cc5172d	0.024058903
240	0x3c2b1bbf	0.010443627
241	0x3d63c2e0	0.05560577
242	0xbe8ca513	-0.27469692
243	0xbd87e190	-0.066348195
244	0xbe712654	-0.23549777
245	0x3c7138ed	0.014723045
246	0xbc69b107	-0.014263398
247	0xbe3fc4c1	-0.187274
248	0x3d97ccc6	0.07412104
249	0x3e160dfa	0.14653769
250	0xbb8d880c	-0.0043191966
251	0xbebadac0	-0.36495018
252	0xbe5e10e0	-0.21686125
253	0xbdbc4d4b	-0.0919443
254	0x3d152c15	0.036418993
255	0x3ea03524	0.31290543

net.2.bias f4 [64]
0	0x3df9c318	0.12195414
1	0x3c70b6b5	0.014691998
2	0x3e3589a5	0.17728288
3	0x3d13f191	0.036119048
4	0xbba47d98	-0.0050198548
5	0x3dc359ad	0.09538589
6	0x3da8d7f7	0.08244317
7	0x3d7ad9af	0.061242756
8	0x3dfd5442	0.123695865
9	0x3d3f48d0	0.0467003
10	0xbd48d17e	-0.049027912
11	0x3dab40ca	0.08361967
12	0x3e219dc4	0.15782839
13	0x3939de1b	0.00017725716
14	0xbd4cbb60	-0.049983382
15	0xbc6cb874	-0.014448274
16	0xbd35cc89	-0.044384513
17	0x3dd2540b	0.10269936
18	0x3caa2d96	0.02077369
19	0x3e49ea01	0.19718172
20	0x3dab3d77	0.08361333
21	0x3dabc606	0.08387379
22	0x3cb8dc78	0.022566065
23	0x3e22a696	0.1588386
24	0x3bd5e96b	0.0065280697
25	0x3dbd3091	0.09237779
26	0xbd6da1d9	-0.058015678
27	0x3c82a432	0.015947435
28	0x3e6ff6f3	0.23434047
29	0x3e123403	0.14277653
30	0x3e38f7cf	0.18063281
31	0x3dff07fe	0.12452696
32	0x3d674f81	0.056472305
33	0xbdce5dcd	-0.10076485
34	0x3d8bb032	0.06820716
35	0x3dd8c727	0.1058486
36	0x3d91eb5a	0.07124968
37	0x3d80cac4	0.062886745
38	0xbbf199df	-0.007373079
39	0x3ca591f9	0.020211207
40	0x3d507bb0	0.050899208
41	0x3cc00891	0.023441585
42	0xbdc18fef	-0.09451281
43	0x3dc5f047	0.0966497
44	0xbd640cfe	-0.055676453
45	0x3c9a94b1	0.01886973
46	0x3db775e7	0.08958035
47	0xbd2b3f49	-0.0418084
48	0x3d9e90b8	0.07742447
49	0x3db8bd59	0.0902049
50	0x3cc2d219	0.023781823
51	0xbbe9ca49	-0.00713471
52	0xbd96cab4	-0.07362881
53	0xbd954137	-0.07287829
54	0xbe073333	-0.13203125
55	0x3d8143c6	0.06311755
56	0xbd271370	-0.04079002
57	0x3de3a11d	0.11114714
58	0x3afc3040	0.0019240454
59	0xbcfee6a7	-0.031115843
60	0x3d7aae30	0.061201274
61	0xbbeedc9e	-0.007289483
62	0x3e1c5170	0.15265441
63	0x3be59cf7	0.007007237

net.4.weight f4 [10, 64]
0	0xbdcad8c8	-0.09904629
1	0xbcdf2ff5	-0.027244547
2	0x3ca22564	0.01979322
3	0xbc449855	-0.011999209
4	0x3e2081c8	0.15674508
5	0xbddc73a5	-0.10764245
6	0xbda94aec	-0.08266243
7	0x3d440a8a	0.047861613
8	0xbe84216a	-0.25806743
9	0xbeec6b45	-0.4617559
10	0x3e122041	0.14270116
11	0xbd264620	-0.04059422
12	0x3d822d12	0.06356253
13	0x3daa5cfc	0.083185166
14	0x3e2dc7b2	0.16970709
15	0x3e4d83b6	0.20069775
16	0xbdd91f3e	-0.10601662
17	0xbe8387d7	-0.25689575
18	0xbe544aa1	-0.20731594
19	0xbd9cad1c	-0.076502055
20	0xbd4dfa08	-0.050287277
21	0xbcd611bc	-0.026131503
22	0xbe84cc60	-0.25937176
23	0xbdcbb90a	-0.09947403
24	0x3cf166f6	0.02946804
25	0xbe60dfa2	-0.21960309
26	0x3dab5cb4	0.08367291
27	0xbe7c6aba	-0.24650088
28	0xbe985283	-0.2975045
29	0x3da8b5e6	0.082378194
30	0xbdecf33a	-0.11569829
31	0x3e25b00d	0.1618044
32	0xbbeecbf9	-0.007287499
33	0x3e325a08	0.17417157
34	0xbe19fc0d	-0.15037556
35	0xbea02077	-0.3127477
36	0xbe206c3a	-0.15666285
37	0x3e2554da	0.1614565
38	0xbe6b6fdc	-0.2299189
39	0x3d368e07	0.04456904
40	0xbe539702	-0.20663074
41	0x3e3d87cc	0.18508834
42	0xbdae1cb9	-0.08501572
43	0xbe033730	-0.12814021
44	0xbe6ee613	-0.23329954
45	0x3e2136dc	0.15743583
46	0x3dd45245	0.10367254
47	0x3dfa3050	0.12216246
48	0xbe7d3d39	-0.24730386
49	0x3e43521b	0.1907429
50	0x3e4ae6d3	0.19814615
51	0xbd8fec24	-0.07027462
52	0x3cfb32fe	0.030663963
53	0xbda2d0be	-0.07949971
54	0xbe0879ca	-0.13327709
55	0x3e3cd930	0.18442225
56	0x3d7a4660	0.06110227
57	0x3d2e9ef0	0.042632043
58	0x3bdd25e3	0.006748901
59	0x3e26128c	0.16218013
60	0xbe62785e	-0.22116229
61	0xbe771792	-0.24130085
62	0xbe8219be	-0.25410265
63	0xbe3c1f53	-0.18371324
64	0xbe8dde8c	-0.27708852
65	0x3dbe7179	0.09298987
66	0x3eefbdef	0.46824595
67	0x3e93ce3c	0.28868282
68	0xbe6a1c6a	-0.22862402
69	0x3d36f025	0.044662613
70	0x3c371207	0.011173732
71	0xbe785dfc	-0.24254602
72	0x3e3f8ceb	0.187061
73	0x3e1feefe	0.15618512
74	0xbe34f97f	-0.176733
75	0xbe042235	-0.12903674
76	0x3e4680c5	0.19385059
77	0x3e04b948	0.12961304
78	0x3e1f2883	0.15542798
79	0xbe0784c6	-0.13234243
80	0xbe30b0e5	-0.1725498
81	0xbe4c4956	-0.1994985
82	0x3ce5028a	0.027955312
83	0xbe900654	-0.28129828
84	0xbe844cd7	-0.25839874
85	0x3e208a12	0.1567767
86	0x3e82269c	0.25420082
87	0x3e7c4392	0.24635151
88	0xbc80e5db	-0.015734604
89	0xbd451a2e	-0.04812067
90	0xba846db0	-0.001010349
91	0x3e281b53	0.16416673
92	0x3d664fa9	0.056228314
93	0x3d83b73c	0.064314336
94	0xbe572e4f	-0.21013759
95	0xbd899a3d	-0.06718872
96	0xbe526acb	-0.20548551
97	0xbe3c831d	-0.18409391
98	0x3e06d331	0.131665
99	0xbda70104	-0.081544906
100	0x3e3a048f	0.18165801
101	0xbdfc7f4d	-0.12328968
102	0x3e79ec8b	0.2440664
103	0xbdfc4271	-0.1231736
104	0xbe4bcf19	-0.1990322
105	0xbb65dacd	-0.0035073042
106	0xbe311c57	-0.17295967
107	0xbe867db2	-0.26267773
108	0x3c9d6bec	0.0192165
109	0xbc9dcf47	-0.019263877
110	0x3e627c47	0.2211772
111	0xbe8ada3d	-0.27119628
112	0x3dab3e40	0.083614826
113	0xbdda375c	-0.1065509
114	0xbe1dd256	-0.15412268
115	0xbd4983f4	-0.049198106
116	0xbc7b3381	-0.015332104
117	0xbe78b217	-0.24286686
118	0x3dff8909	0.12477309
119	0xbe252050	-0.16125607
120	0x3e10f7ed	0.14157076
121	0x3e6d9219	0.23200263
122	0xbe1875ca	-0.14888683
123	0xbd95fee1	-0.07324005
124	0x3da75176	0.08169834
125	0xbe36c0fc	-0.17847055
126	0x3dd130ea	0.10214408
127	0xbd42f0e0	-0.047592998
128	0xbe19e1e8	-0.15027583
129	0xbe54e133	-0.20789032
130	0xbec25232	-0.37953335
131	0xbd10828a	-0.03528074
132	0xbe0e9264	-0.13923031
133	0xbd8d8cf4	-0.0691165
134	0xbd2834f2	-0.041066118
135	0x3e83e53d	0.25760832
136	0x3dfc90c3	0.123322986
137	0x3d89a4d9	0.06720895
138	0xbe3961ac	-0.18103665
139	0xbdabb1be	-0.08383511
140	0xbea3e350	-0.32009363
141	0xbec45b73	-0.3835102
142	0xbe78c4d1	-0.2429383
143	0x3df7328b	0.12070187
144	0x3e28cb8b	0.16483895
145	0xbe68d99c	-0.22739261
146	0x3c8e2fbc	0.017356746
147	0xbdf27291	-0.11838258
148	0x3de7a875	0.113114275
149	0xbdfe7da6	-0.12426309
150	0x3de44dfc	0.11147687
151	0xbea459b1	-0.3209968
152	0x3da7b206	0.08188252
153	0x3db539e3	0.08848932
154	0x3d89b489	0.067238875
155	0x3db83663	0.089947484
156	0xbdbda16e	-0.09259306
157	0x3c62d376	0.0138443615
158	0x3df9cfda	0.12197848
159	0x3c29d949	0.010366746
160	0xbe29293f	-0.1651964
161	0x3d24fd75	0.040280778
162	0xbe0c526b	-0.13703315
163	0x3d9b696a	0.075884655
164	0x3deedf24	0.116636544
165	0x3e2666a9	0.16250099
166	0xbdee9925	-0.11650304
167	0xb92d9176	-0.00016552754
168	0x3deb824f	0.11499464
169	0xbebb28aa	-0.36554462
170	0x3cdf2656	0.02723996
171	0xbe88a528	-0.26688504
172	0x3e121789	0.1426679
173	0x3e70cd69	0.23515858
174	0xbe9282b1	-0.28615335
175	0x3e5287a5	0.20559557
176	0x3e1ac206	0.15113077
177	0x3e74c48e	0.23903105
178	0xbdd2706c	-0.10275349
179	0xbdc17340	-0.0944581
180	0xbd8ee22e	-0.06976734
181	0xbe0c9f37	-0.1373261
182	0xbdfe3eec	-0.12414345
183	0xbe809c74	-0.25119364
184	0xbba39ce6	-0.004993069
185	0x3dfd967d	0.12382219
186	0x3d9dfe63	0.07714536
187	0xbc408153	-0.011749583
188	0x3e435b5c	0.1907782
189	0xbe3a1dc5	-0.18175419
190	0x3da582bf	0.080815785
191	0xbf0cbb0e	-0.5497292
192	0xbe219086	-0.15777788
193	0x3c87ed9b	0.016592791
194	0xbeb58846	-0.3545553
195	0x3da4dfbf	0.08050489
196	0xbd84647a	-0.06464477
197	0xbd971099	-0.073762126
198	0x3d8940ee	0.067018375
199	0xbe8212a8	-0.2540486
200	0x3db6a62e	0.08918415
201	0x3e50bc82	0.2038441
202	0x3ddfe832	0.109329596
203	0x3ddf3bea	0.109000996
204	0xbe014cdc	-0.12626976
205	0x3afd0dcc	0.001930648
206	0x3dd0fd14	0.10204521
207	0xbd8b997c	-0.06816384
208	0x3db6917f	0.0891447
209	0x3b97fad7	0.0046380567
210	0xbe1092c2	-0.14118484
211	0x3db7b686	0.089703605
212	0xbd77a200	-0.06045723
213	0xbebeb8fa	-0.372505
214	0xbc15749f	-0.009122043
215	0xbeb70bca	-0.35751182
216	0xbe18630f	-0.14881538
217	0xbe0decc0	-0.13859844
218	0xbcd9b129	-0.026573734
219	0xbdfa0573	-0.122080706
220	0xbe52f0e9	-0.20599712
221	0xbe27a8ac	-0.16372937
222	0x3e3c1944	0.18369013
223	0xbe41c4b4	-0.18922693
224	0x3e2a24d6	0.16615614
225	0xbc12f2df	-0.008969038
226	0x3e4959ba	0.19663134
227	0xbe59c822	-0.21267751
228	0xbe62bb18	-0.22141683
229	0x3ce507b9	0.027957784
230	0x3e0b7b95	0.13621362
231	0x3e06ecaa	0.13176218
232	0xbce780a9	-0.028259592
233	0xbe5b43bd	-0.21412559
234	0xbc5987b7	-0.013276986
235	0xbdf9db15	-0.1219999
236	0x3df8a40a	0.12140663
237	0xbe4dd363	-0.20100169
238	0xbe8743ae	-0.26418823
239	0xbe0ceb56	-0.13761649
240	0x3da1d1a4	0.07901314
241	0xbda454d7	-0.080239944
242	0x3e355b3d	0.17710586
243	0x3e48d186	0.19611177
244	0x3d5baf4c	0.053633973
245	0x3e5d5d6e	0.21617672
246	0xbe18575f	-0.1487708
247	0xbe6bdfe9	-0.23034634
248	0x3b16de3e	0.002302065
249	0xbe0f6bad	-0.14005919
250	0x3d9a0340	0.07520151
251	0x3e03df07	0.12878047
252	0x3e1411be	0.14459893
253	0x3e32cfb6	0.17462048
254	0xbe958ee2	-0.29210573
255	0x3e60b394	0.21943504

net.4.bias f4 [10]
0	0xbca174c5	-0.019709
1	0x3dc2b67c	0.095074624
2	0x3dd354e4	0.10318926
3	0x3c4ec7d3	0.012620884
4	0x3e00a8d3	0.12564401
5	0xbcfeb072	-0.031089995
6	0x3dc45e99	0.095883556
7	0x3cb52aad	0.022115076
8	0x3dbb01fa	0.091312364
9	0xbd9b971a	-0.0759718
