ARTIFICIAL_INTELLIGENCE/Tensor_&_Setup/simple_cnn_mnist.pth (torch, 212363 bytes, 8 tensors)

features.0.weight f4 [8, 1, 3, 3]
0.61839736 0.13863443 0.4141181 0.49959803 0.2999926 0.08992668 -0.52772164 0.025152542
-0.16553928 0.336045 -0.03047266 0.18052149 0.37068474 0.73237616 0.37370002 0.5011915
0.5680082 0.20230103 -0.24250239 0.47311324 0.060974807 0.35222605 0.21311751 0.54168636
0.5296951 0.43570578 0.51639456 0.1589148 0.41899988 -0.1653659 -0.23011614 0.30543157
0.06053272 0.3514624 0.013067524 0.5677734 0.5164166 0.6793762 0.48600826 0.41026732
0.20785046 -0.15434825 -0.25191242 0.17015608 -0.11691111 -0.47906035 0.34547415 0.20882763
-0.077196464 0.36989632 0.60870415 0.60645163 0.47535953 0.60406893 0.13005786 -0.26347044
-0.46755672 0.19930232 -0.6712218 0.06388469 -0.48967957 -0.28458232 0.31036666 0.28792286
0.437855 -0.23222102 0.22087267 0.40614486 0.68266904 -0.01169512 0.20562059 0.4518537
00000000: 4a4f 1e3f 2ff6 0d3e 4a07 d43e 50cb ff3e
00000010: a198 993e 7b2b b83d c418 07bf b40c ce3c
00000020: 2183 29be 170e ac3e cda1 f9bc a0da 383e
00000030: 64ca bd3e 017d 3b3f 9c55 bf3e 164e 003f
00000040: fc68 113f 0028 4f3e 8c52 78be e63b f23e
00000050: b8c0 793d f956 b43e 7a3b 5a3e f5ab 0a3f
00000060: 199a 073f d414 df3e 6f32 043f 90ba 223e
00000070: 2787 d63e ae55 29be 91a3 6bbe 8761 9c3e
00000080: 28f1 773d e1f2 b33e 2b19 563c 9959 113f
00000090: e133 043f 99eb 2d3f 13d6 f83e 8f0e d23e
000000a0: c0d6 543e 780d 1ebe aafa 80be 653d 2e3e
000000b0: 186f efbd 6647 f5be fde1 b03e e9d6 553e
000000c0: 2e19 9ebd 0d63 bd3e 09d4 1b3f 6a40 1b3f
000000d0: 5362 f33e 43a4 1a3f e32d 053e 99e5 86be
000000e0: 9863 efbe e815 4c3e 31d5 2bbf fad5 823d
000000f0: 48b7 fabe c6b4 91be 61e8 9e3e a06a 933e
00000100: 882e e03e 59cb 6dbe 722c 623e 38f2 cf3e
00000110: 66c3 2e3f e39c 3fbc 348e 523e 5e59 e73e

features.0.bias f4 [8]
0.03012015 0.08295712 0.0013406608 0.021821337 0.13238715 -0.009775562 0.34895745 -0.14384
00000000: 88be f63c 6ce5 a93d 1db9 af3a a9c2 b23c
00000010: 7f90 073e ae29 20bc 8daa b23e cb4a 13be

features.3.weight f4 [16, 8, 3, 3]
0.11406668 0.20814656 -0.067604676 0.24586819 -0.283372 -0.37465766 -0.31462774 -0.17827941
0.28313875 0.25825027 0.076095305 -0.13963293 -0.1413908 -0.25533623 -0.0088615855 -0.35234863
0.09515629 0.23094182 0.23530267 -0.15156008 -0.3428884 -0.2010371 -0.24061683 0.115421854
-0.28391233 0.07268125 0.1863552 0.17369269 -0.14270744 -0.057027634 0.023369147 -0.19030307
0.065633796 -0.13724871 0.059887152 0.17163286 0.13934618 0.0051073227 -0.07625855 0.1170885
-0.13626522 -0.12259865 -0.23031019 -0.14100055 0.24839735 0.25598326 -0.04280648 -0.45696765
-0.47693196 -0.2073311 0.26737824 -0.18583363 0.21998319 0.2787365 0.08925454 0.13110971
0.0028466585 -0.01876743 0.08995666 0.17574969 0.16597937 0.17100258 -0.06354387 0.13756955
-0.024909606 -0.3632833 -0.17656979 -0.38440034 0.073608294 -0.52888983 -0.044952866 0.057210963
-0.046441678 -0.04829987 0.08293349 -0.045139227 0.06420249 -0.0044756937 0.07279653 0.09548848
0.06637324 0.027590932 -0.001670459 0.13904752 0.039753653 -0.06665811 0.0018344373 0.11184403
0.00433846 0.0852953 -0.1152866 0.1097275 0.0977707 0.03420728 0.013254418 -0.1383277
-0.030376136 0.019440014 -0.18259951 -0.040817156 -0.0418684 -0.005404159 -0.09985107 0.080143996
0.05364893 -0.01756777 0.12113754 0.040653855 -0.058851577 -0.009182709 0.13980715 -0.018802624
0.12862924 0.0039477157 0.10858956 0.0314462 0.098748244 0.018806092 0.07912529 0.017825363
0.12487953 0.15229434 -0.14806141 -0.071965456 -0.017837428 -0.19438925 -0.21077561 -0.19080098
-0.11373565 -0.18214172 -0.09109639 0.009877304 0.0059084883 -0.19828297 -0.22678211 0.026822576
0.104862206 -0.11841952 0.074883334 0.03112903 -0.15229411 0.11552716 0.097998455 -0.064739786
-0.018901672 0.030844707 -0.06968692 0.22005679 0.10413116 0.28467515 0.049881883 0.17469156
0.09068913 0.053386673 0.048183873 -0.06535557 0.057421196 0.2342332 0.19194825 -0.27978173
-0.2092909 -0.062432833 -0.010718454 0.030440105 -0.074834906 0.11343888 0.14275347 0.24692096
-0.19680457 -0.24859475 -0.19321181 0.10298631 0.16376372 -0.13732679 0.062304866 0.23692352
0.23135142 -0.33084062 -0.13644093 0.079832636 0.09403058 -0.115143344 -0.23940778 0.12230526
0.10038353 0.13360043 0.098815285 0.017227972 0.071440235 -0.033143733 -0.07709527 -0.020206278
0.046436027 0.051919844 0.04569796 -0.39064452 -0.41359153 -0.111861445 -0.020040095 0.021585101
0.09207369 -0.20177925 -0.35281578 -0.33758044 -0.0889603 -0.11516889 -0.0019480666 -0.07202935
0.11005785 -0.079007074 0.20688944 0.27278525 0.32342 -0.3047848 -0.11651898 0.10677859
-0.00254256 0.10797745 -0.0059149135 -0.27965176 -0.30958202 -0.21240494 0.38421088 0.22216205
0.20118344 -0.15529107 -0.12052963 -0.29113942 -0.13414863 -0.05874943 0.08959356 0.32115704
0.10339338 0.061672866 -0.36132076 -0.18393569 -0.26725784 -0.06615553 0.09175014 -0.010142904
0.11300523 0.14094713 0.17967328 -0.21608268 -0.026751481 -0.17628145 -0.027700555 0.18125844
0.18607882 0.06004465 0.1160656 0.07503607 0.14119503 0.21830097 -0.011624875 -0.13014589
00000000: cb9b e93d 5f24 553e 5274 8abd dfc4 7b3e
00000010: 2316 91be 21d3 bfbe e316 a1be e18e 36be
00000020: 90f7 903e 6139 843e dbd7 9b3d effb 0ebe
00000030: c0c8 10be 6ebb 82be 2f30 11bc 0a67 b4be
00000040: 4de1 c23d 037c 6c3e 2ff3 703e 9132 1bbe
00000050: 128f afbe abdc 4dbe 4264 76be 4b62 ec3d
00000060: f55c 91be e8d9 943d e6d3 3e3e 7fdc 313e
00000070: e621 12be cf95 69bd a770 bf3c cfde 42be
00000080: 036b 863d ed8a 0cbe 3b4c 753d 86c0 2f3e
00000090: c4b0 0e3e 545b a73b 712d 9cbd 18cc ef3d
000000a0: 1c89 0bbe 0015 fbbd 6fd6 6bbe 7362 10be
000000b0: e05b 7e3e 3d10 833e d955 2fbd aaf7 e9be
000000c0: 6d30 f4be 9b4e 54be cde5 883e 2c4b 3ebe
000000d0: 4643 613e 8db6 8e3e 16cb b63d a041 063e
000000e0: 018f 3a3b 27be 99bc 333b b83d baf7 333e
000000f0: 7ff6 293e 4d1b 2f3e 4a23 82bd 08df 0c3e
00000100: 3b0f ccbc 4500 babe b6ce 34be 1fd0 c4be
00000110: f2bf 963d 5365 07bf 7f20 38bd 0b56 6a3d
00000120: a139 3ebd 16d6 45bd 09d9 a93d e9e3 38bd
00000130: 987c 833d d7a8 92bb 5916 953d 778f c33d
00000140: b1ee 873d 6106 e23c 4ef3 daba 7962 0e3e
00000150: bad4 223d 0c84 88bd 8071 f03a 7c0e e53d
00000160: a429 8e3b 4daf ae3d 621b ecbd d0b8 e03d
00000170: 013c c83d ef1c 0c3d 0f29 593c c7a5 0dbe
00000180: 60d7 f8bc aa40 9f3c 5efb 3abe e42f 27bd
00000190: 337e 2bbd 5f15 b1bb b87e ccbd 8922 a43d
000001a0: fbbe 5b3d 49ea 8fbc f516 f83d a884 263d
000001b0: 5a0e 71bd 1373 16bc 9b29 0f3e f607 9abc
000001c0: 62b7 033e d75b 813b 3464 de3d bbcd 003d
000001d0: 853c ca3d 3c0f 9a3c 710c a23d 7f06 923c
000001e0: d7c0 ff3d 0cf3 1b3e 699d 17be a062 93bd
000001f0: cc1f 92bc fa0d 47be 90d5 57be 5561 43be
00000200: 3dee e8bd 5c83 3abe be90 babd 6ad4 213c
00000210: fe9b c13b b10a 4bbe 9239 68be 05bb db3c
00000220: ffc1 d63d ef85 f2bd 6f5c 993d 4f02 ff3c
00000230: fdf2 1bbe 8199 ec3d 6ab3 c83d 4b96 84bd
00000240: aed7 9abc 0aae fc3c 04b8 8ebd 9156 613e
00000250: b842 d53d f1c0 913e f250 4c3d 58e2 323e
00000260: 39bb b93d fcab 5a3d 745c 453d 24d9 85bd
00000270: 7d32 6b3d d4da 6f3e 158e 443e 8d3f 8fbe
00000280: 5b50 56be 92b9 7fbd 749c 2fbc 875d f93c
00000290: 0b43 99bd a552 e83d f72d 123e d9d8 7c3e
000002a0: 2387 49be 9f8f 7ebe 51d9 45be 7dea d23d
000002b0: adb1 273e 659f 0cbe 6333 7f3d 149c 723e
000002c0: 63e7 6c3e f163 a9be 2cb7 0bbe 4b7f a33d
000002d0: 1b93 c03d 46d0 ebbd 5027 75be 2e7b fa3d
000002e0: e195 cd3d 8dce 083e ab5f ca3d ad21 8d3c
000002f0: 424f 923d b9c1 07bd 20e4 9dbd a387 a5bc
00000300: b433 3e3d e7a9 543d c92d 3b3d 8f02 c8be
00000310: 45c2 d3be 9d17 e5bd 202b a4bc 3dd3 b03c
00000320: 2191 bc3d 389f 4ebe 45a4 b4be 58d7 acbe
00000330: d130 b6bd abdd ebbd 4556 ffba 2084 93bd
00000340: 0366 e13d 76ce a1bd d3da 533e 82aa 8b3e
00000350: 4e97 a53e c10c 9cbe 81a1 eebd bcae da3d
00000360: 14a1 26bb 4823 dd3d e4d1 c1bb 842e 8fbe
00000370: 8981 9ebe ae80 59be 4ab7 c43e 737e 633e
00000380: 0803 4e3e 9f04 1fbe 3dd8 f6bd 3a10 95be
00000390: 425e 09be 3ea3 70bd d47c b73d b26e a43e
000003a0: e9bf d33d b09c 7c3d 09ff b8be a359 3cbe
000003b0: 05d6 88be 8d7c 87bd 7fe7 bb3d 6c2e 26bc
000003c0: 496f e73d 7254 103e 46fc 373e c744 5dbe
000003d0: ec25 dbbc 2083 34be 46ec e2bc d09b 393e
000003e0: 728b 3e3e 61f1 753d cdb3 ed3d 83ac 993d
000003f0: 6e95 103e 4a8a 5f3e 4276 3ebc f744 05be

features.3.bias f4 [16]
0.053481698 -0.16704863 0.14383116 0.025194794 -0.05426554 -0.04655875 -0.04728849 -0.19105493
-0.05714049 0.08414334 -0.10205416 -0.22305962 -0.11528145 0.08168229 -0.017758595 0.096261
00000000: a00f 5b3d cc0e 2bbe 7a48 133e 5065 ce3c
00000010: 8b45 5ebd 63b4 3ebd 93b1 41bd e7a3 43be
00000020: 250c 6abd 5853 ac3d c501 d1bd be69 64be
00000030: ae18 ecbd 0b49 a73d 797a 91bc 7d24 c53d

classifier.0.weight f4 [64, 784]
-0.0008091476 -0.06291288 -0.041563347 -0.02220004 0.016650267 -0.0334868 -0.059092984 -0.014473749
-0.042096086 -0.0035090905 -0.018311825 -0.012522945 -0.01504642 -0.044340532 -0.028252754 -0.05706742
0.0011247479 -0.017832534 -0.037235696 -0.029223518 -0.0039422675 0.011704632 -0.0073382836 -0.0077832076
0.017139308 -0.0057041803 -0.029863048 -0.033794075 0.0011381435 -0.025743075 0.0051858923 0.016794747
0.048983134 -0.026820648 -0.04637705 -0.018163627 -0.003269175 -0.056891404 -0.04277695 -0.025813535
0.0017450476 -0.026508566 0.018692449 -0.010226722 -0.0357093 -0.0168314 -0.026428334 0.006677678
-0.025970489 -0.03437502 -0.027638962 0.015804874 -0.05380092 -0.03824785 -0.0020694037 -0.0054332027
0.008173824 0.027984476 0.0074691847 -0.00011063825 0.008836958 0.027065199 -0.037450794 -0.040695988
0.020335505 0.023626866 -0.029321946 0.014832588 -0.020756487 -0.026919326 -0.029543364 -0.003220033
-0.030554539 -0.013424711 0.02594494 -0.006474291 0.012946814 0.0150189595 2.2032986e-05 0.008590074
-0.02986954 -0.022005461 -0.033834722 -0.036322966 0.023518296 -0.038524106 0.02546522 -0.008362253
-0.0070415903 -0.009149276 0.024054706 0.00491203 0.024037354 -0.041085042 -0.014933853 0.021116944
0.024469474 -0.03961276 -0.020395957 -0.024650527 -0.007443558 -0.0074372203 0.012021184 -0.021935243
0.017147085 -0.008959003 -0.035919 -0.01795657 -0.018981969 -0.028428162 -0.0077342526 -0.03217789
0.018376222 -0.029288432 -0.00847926 0.0025018957 0.000745496 -0.022759601 -0.025110919 -0.02605563
-0.006791548 -0.038442418 -0.034255378 0.013058777 -0.015578894 -0.017726265 -0.010476749 0.009661527
0.0035387992 -0.013683361 0.010443434 -0.016670989 0.00067892484 -0.031880923 0.0021778278 -0.026197264
-0.00781473 -0.054797754 -0.010865404 0.011910118 -0.021712793 -0.018083405 -0.030050099 -0.0387246
-0.037491526 -0.004389594 -0.023342589 0.0091503 -0.025008412 -0.049762823 0.0013936018 -0.013114566
-0.0041411533 -0.029964026 0.0067704543 -0.05594343 -0.0109863775 -0.011825418 -0.000818008 0.021268087
0.01883544 -0.012622945 0.02242183 -0.055730835 -0.031542134 -0.035353445 -0.016606105 0.0024649822
0.02151784 -0.015796296 0.015413763 0.0045974883 -0.0024536264 -0.024204085 -0.0077451556 -0.0030551292
0.0037928289 -0.008745585 -0.036108296 -0.018965885 -0.03948956 -0.034877483 0.004493829 0.020350955
-0.02483882 -0.015947457 0.0041813403 0.002301637 -0.029287398 0.004804588 -0.020808479 0.006971149
-0.035590548 0.009139914 -0.016100777 0.02526487 -0.040606074 -0.03976713 0.020363605 -0.031787977
-0.012521206 -0.024665358 0.025914755 -0.010929548 -0.020997338 0.041906275 -0.032032695 -0.043794364
-0.012204063 -0.0071655693 -0.011872244 -0.027014969 0.018864272 -0.021842731 0.0074785305 -0.028525688
0.019533882 0.021398416 0.014062812 0.024974013 -0.05203781 0.007210283 -0.018193904 -0.027047247
0.02784583 -0.030927692 0.017653832 -0.021100506 -0.051569402 -0.0127379075 0.0042253044 -0.038305197
0.0131373275 0.019796733 -0.011889089 -0.05491854 -0.019715337 -0.036796317 0.008212567 -0.03826103
0.015743325 -0.04795023 -0.019537194 -0.020326186 -0.011709096 -0.02917634 -0.009909073 -0.053945355
-0.03254078 -0.04329217 -0.015564404 0.024226248 -0.020704672 -0.037014697 -0.043175377 -0.0077168606
00000000: fa1c 54ba 78d8 80bd 543e 2abd dcdc b5bc
00000010: 2466 883c 7429 09bd 7c0b 72bd 4e23 6dbc
00000020: f26c 2cbd c5f8 65bb ae02 96bc 0a2d 4dbc
00000030: 4285 76bc 6b9e 35bd 5272 e7bc 87bf 69bd
00000040: 476c 933a 8915 92bc 7584 18bd 2966 efbc
00000050: 232e 81bb c9c4 3f3c fc75 f0bb 470a ffbb
00000060: bc67 8c3c 22ea babb 5aa3 f4bc a86b 0abd
00000070: c22d 953a 24e3 d2bc 6bee a93b 2395 893c
00000080: 8aa2 483d fab6 dbbc ddf5 3dbd e3cb 94bc
00000090: a83f 56bb f606 69bd e236 2fbd e876 d3bc
000000a0: 15ba e43a 7e28 d9bc e820 993c fb8d 27bc
000000b0: ea43 12bd 01e2 89bc 3c80 d8bc 6cd0 da3b
000000c0: 10c0 d4bc d2cc 0cbd 1b6b e2bc 3979 813c
000000d0: 5a5e 5cbd c7a9 1cbd d59e 07bb 0209 b2bb
000000e0: 81eb 053c b33f e53c 10c0 f43b 7506 e8b8
000000f0: e3c8 103c d6b7 dd3c 0166 19bd d6b0 26bd
00000100: a596 a63c 218d c13c 9434 f0bc 6204 733c
00000110: 8209 aabc eb85 dcbc ed04 f2bc 3007 53bb
00000120: 834d fabc 52f3 5bbc 7c8a d43c 4a26 d4bb
00000130: e01e 543c 1512 763c 7ad3 b837 62bd 0c3c
00000140: f7b0 f4bc cc44 b4bc 4796 0abd 64c7 14bd
00000150: 71a9 c03c 74cb 1dbd 709c d03c d501 09bc
00000160: 24bd e6bb d8e6 15bc 600e c53c 18f5 a03b
00000170: fce9 c43c ca48 28bd 1fad 74bc 71fd ac3c
00000180: 3574 c83c fd40 22bd 6c15 a7bc e7ef c9bc
00000190: 17e9 f3bb edb3 f3bb 80f4 443c 8ab1 b3bc
000001a0: 0b78 8c3c c8c8 12bc cd1f 13bd a819 93bc
000001b0: 1380 9bbc 2de2 e8bc 9d6f fdbb f7cc 03bd
000001c0: bb89 963c 4bee efbc 98ec 0abc d8f6 233b
000001d0: 646d 433a 5872 babc 6ab5 cdbc 9e72 d5bc
000001e0: a28b debb cc75 1dbd 5e4f 0cbd 7bf4 553c
000001f0: 9e3e 7fbc ac36 91bc aca6 2bbc 624b 1e3c
00000200: 33eb 673b 2d30 60bc f01a 2b3c 9991 88bc
00000210: e0f9 313a 9295 02bd e3b9 0e3b a59b d6bc
00000220: 5a09 00bc 9c73 60bd cf04 32bc a822 433c
00000230: 07df b1bc a623 94bc a02b f6bc b09d 1ebd
00000240: b790 19bd 95d6 8fbb f538 bfbc 24eb 153c
00000250: 71de ccbc 1ad4 4bbd 84a9 b63a 7ade 56bc
00000260: 83b2 87bb 1e77 f5bc b0da dd3b f024 65bd
00000270: 3500 34bc 66bf 41bc 966f 56ba 693a ae3c
00000280: c84c 9a3c 78d0 4ebc fcad b73c 0446 64bd
00000290: 5332 01bd c6ce 10bd 8709 88bc 8a8b 213b
000002a0: 2e46 b03c 3c67 81bc 028a 7c3c 87a6 963b
000002b0: 05cd 20bb a547 c6bc 13cb fdbb 9038 48bb
000002c0: 1c91 783b a449 0fbc 4be6 13bd 585e 9bbc
000002d0: cebf 21bd b1db 0ebd f840 933b 0cb7 a63c
000002e0: c87a cbbc 3ea4 82bc a003 893b 10d7 163b
000002f0: 20ec efbc ce6f 9d3b 8b76 aabc 3c6e e43b
00000300: 65c7 11bd 94bf 153c c7e5 83bc 46f8 ce3c
00000310: 8e52 26bd dce2 22bd 93d1 a63c 1c34 02bd
00000320: bf25 4dbc 010f cabc 2e4b d43c d911 33bc
00000330: 9c02 acbc eaa5 2b3d b734 03bd b861 33bd
00000340: 8df3 47bc 27cd eabb cd83 42bc 7f4e ddbc
00000350: 3f89 9a3c 87ef b2bc 760e f53b b4ae e9bc
00000360: 8505 a03c bb4b af3c b567 663c 4d96 cc3c
00000370: 9925 55bd 3d44 ec3b 620b 95bc 3092 ddbc
00000380: f01c e43c 125c fdbc c59e 903c f8da acbc
00000390: 703a 53bd a8b2 50bc 6c74 8a3b e9e5 1cbd
000003a0: f23d 573c c22c a23c 74ca 42bc 43f2 60bd
000003b0: 0f82 a1bc bcb7 16bd 018e 063c 99b7 1cbd
000003c0: 25f8 803c 7667 44bd 770c a0bc 1a83 a6bc
000003d0: 82d7 3fbc 3803 efbc aa59 22bc cef5 5cbd
000003e0: 7b49 05bd 2153 31bd d801 7fbc 2076 c63c
000003f0: d89c a9bc b99c 17bd aad8 30bd b8dd fcbb

classifier.0.bias f4 [64]
-0.030486243 -0.033878636 0.011578643 -0.023513738 -0.027471418 0.069172725 0.022300491 0.028819555
0.0031279149 0.027837649 -0.0013939732 -0.011671735 0.015580359 0.047150087 -0.0066463444 -0.009593212
-0.040798195 0.01917239 0.0019137552 -0.012193368 0.041133016 -0.026383448 -0.016020609 0.02419328
-0.01832993 -0.014940104 -0.025613856 -0.044318616 -0.0040611257 0.019975416 -0.05391838 -0.036618195
0.007097737 -0.003701253 -0.02853673 -0.012593942 0.06733776 0.041880924 -0.022728525 0.0138788065
-0.017435359 0.0075950413 0.0010985514 -0.005673366 0.019999117 0.06569917 0.04692069 0.056861177
-0.02605313 0.0076238234 0.022361444 0.010324858 -0.026780693 0.040922146 0.02227611 -0.009607968
-0.013938073 0.022372575 -0.023467693 0.0007937063 0.0025705695 -0.008314168 -0.04824285 0.0136361215
00000000: 49be f9bc 53c4 0abd 59b4 3d3c e29f c0bc
00000010: bd0b e1bc 6eaa 8d3d 85af b63c fd16 ec3c
00000020: b4fd 4c3b c80b e43c fbb5 b6ba ce3a 3fbc
00000030: c344 7f3c 7320 413d 94c9 d9bb d92c 1dbc
00000040: 021c 27bd 6b0f 9d3c f8d6 fa3a b1c6 47bc
00000050: 187b 283d 1a22 d8bc a73d 83bc fc30 c63c
00000060: a628 96bc 57c7 74bc 26d4 d1bc 7087 35bd
00000070: 3113 85bb 7ca3 a33c 85d9 5cbd f6fc 15bd
00000080: 2294 e83b b990 72bb dcc5 e9bc d256 4ebc
00000090: 61e8 893d 558b 2b3d 2c31 babc ef63 633c
000000a0: 99d4 8ebc d3df f83b 45fd 8f3a a5e7 b9bb
000000b0: 30d5 a33c 498d 863d e92f 403d 44e7 683d
000000c0: 606d d5bc 44d1 f93b 592f b73c 9829 293c
000000d0: 2f63 dbbc fb9d 273d 637c b63c bd6a 1dbc
000000e0: 845c 64bc b146 b73c 523f c0bc ba10 503a
000000f0: 0077 283b 2638 08bc 4b9a 45bd 0a6a 5f3c

classifier.2.weight f4 [10, 64]
0.03802699 0.06455555 0.042989932 -0.04884812 0.027841598 0.0860335 -0.004733295 -0.17707358
-0.0677372 0.03615614 -0.18377288 -0.022021616 -0.136104 0.18217646 -0.02074353 0.08116229
0.111593544 0.10666592 -0.11778228 0.05846947 -0.14057073 0.10468373 0.08314657 -0.07012826
0.18539904 0.11395405 -0.10654613 -0.09136001 -0.015721977 0.034719884 -0.020714844 0.06871925
0.073141105 0.019264502 -0.12554245 -0.11946628 0.08779066 -0.0721609 -0.008807449 -0.30265272
-0.010967373 0.07453244 0.06560995 0.027003096 0.098091796 0.086343914 -0.03009415 0.014462105
0.08670885 0.088040285 0.0848593 -0.14229755 -0.047717858 -0.044133037 -0.053587783 0.057240415
-0.19415025 -0.06755226 -0.13582645 0.006989399 -0.11123173 -0.054247882 -0.014491397 0.09648406
-0.07999761 0.1382206 0.05052514 0.031621017 -0.087546475 -0.19038138 0.03173411 -0.00033608195
-0.035610646 0.056956373 0.13287704 0.01270666 0.093137406 -0.07279582 0.058514673 0.054990165
-0.06845544 -0.07217942 0.09772667 -0.070030406 -0.1746472 0.010866333 -0.019971028 0.041707054
0.13576719 -0.069854856 0.052498475 0.038932387 -0.01632033 0.17478406 0.047637906 -0.008472922
-0.0049803304 -0.060021315 -0.046434004 -0.08395569 0.1197811 -0.17695506 0.1165008 0.11059097
-0.10926868 -0.008708624 -0.20398305 0.09865681 -0.13113664 0.04964009 -0.20773983 0.1459497
0.068376794 -0.18432945 0.112471476 -0.048531875 -0.08601428 -0.24586347 -0.027771873 0.11188726
0.18022174 0.07009479 -0.044185583 0.0422968 -0.18055476 -0.078005694 -0.118749686 0.0958235
-0.103664175 -0.041721698 0.08380421 -0.0035135213 0.064839154 -0.07843144 -0.13068905 -0.009320976
-0.008301156 -0.2061762 -0.1757784 0.09597802 0.120467015 0.18200573 -0.057499073 0.07685674
-0.08375272 -0.0032132778 -0.047938544 -0.020004863 0.05751965 0.08815751 0.0861746 -0.11382541
-0.054085746 0.0639664 0.08437742 0.0145043535 0.11303686 0.061032575 -0.016666725 0.010334862
-0.11599745 0.05898789 0.050422687 -0.08943407 -0.0741908 -0.057878707 0.10718023 -0.08742513
-0.22785117 -0.0024398344 0.07558625 0.03766479 0.1304969 0.011600649 -0.06205996 0.124181055
0.060555518 0.041781496 0.1559261 0.08704598 0.08452084 -0.18823226 0.06328089 -0.08417033
0.16590542 0.07092246 -0.055786356 0.015434838 0.050475962 0.11830898 -0.30530164 0.026439374
0.032055028 -0.16524625 0.10794689 0.06119986 -0.07176925 -0.15826896 0.007882732 0.15907101
-0.054789037 0.111053884 -0.122877054 -0.027343402 -0.09289947 0.0027357975 -0.019782774 0.059814513
0.029044086 -0.102785155 0.074122116 0.11114933 0.09130819 -0.05547381 -0.026373507 0.10085778
-0.15342514 0.11644182 0.023995118 -0.097081125 0.06968029 -0.2564168 0.10645155 0.04583587
0.11973496 -0.10816925 -0.13172685 0.08921814 -0.25872138 0.1795434 0.0053463564 -0.17303245
0.08750077 -0.05856101 0.1508246 -0.06818423 -0.14107586 -0.14771397 -0.12869653 0.04212159
0.062831186 -0.085830465 -0.07269646 0.021672644 0.029779842 -0.0027009961 -0.07581855 -0.07020687
0.10514689 0.00033990652 -0.028102633 -0.04408283 0.19684501 0.094000354 -0.026552757 -0.00849641
00000000: 30c2 1b3d b335 843d 3616 303d f714 48bd
00000010: 1014 e43c 5532 b03d c219 9bbb c752 35be
00000020: cdb9 8abd 7618 143d f52e 3cbe ad66 b4bc
00000030: d95e 0bbe 778c 3a3e 56ee a9bc 6a38 a63d
00000040: 288b e43d a973 da3d d637 f1bd af7d 6f3d
00000050: c6f1 0fbe 6c64 d63d c048 aa3d 689f 8fbd
00000060: 3fd9 3d3e be60 e93d db34 dabd f51a bbbd
00000070: 60cb 80bc 7036 0e3d 2db2 a9bc aebc 8c3d
00000080: 01cb 953d 97d0 9d3c 338e 00be bdaa f4bd
00000090: 97cb b33d 18c9 93bd 1e4d 10bc 4cf5 9abe
000000a0: 7fb0 33bc 77a4 983d 825e 863d 9935 dd3c
000000b0: 5ae4 c83d 14d5 b03d 0288 f6bc 77f2 6c3c
000000c0: 6994 b13d 774e b43d b6ca ad3d 73b6 11be
000000d0: cd73 43bd d8c4 34bd dd7e 5bbd ed74 6a3d
000000e0: 53cf 46be d758 8abd 1716 0bbe 5407 e53b
000000f0: 76cd e3bd 0733 5ebd 536d 6dbc 6f99 c53d
00000100: c9d5 a3bd b389 0d3e 73f3 4e3d 0a85 013d
00000110: 914b b3bd 56f3 42be a0fb 013d 2834 b0b9
00000120: 78dc 11bd 164b 693d eb10 083e 982f 503c
00000130: d3be be3d fa15 95bd 15ad 6f3d 5e3d 613d
00000140: 5e32 8cbd ced2 93bd ec24 c83d 1a6c 8fbd
00000150: b7d6 32be b408 323c 489a a3bc 04d5 2a3d
00000160: 8e06 0b3e 1010 8fbd a408 573d 9177 1f3d
00000170: 36b2 85bc 98fa 323e f71f 433d 03d2 0abc
00000180: 0a32 a3bb e9d8 75bd 9531 3ebd f6f0 abbd
00000190: cb4f f53d b533 35be f997 ee3d 857d e23d
000001a0: 42c8 dfbd 9eae 0ebc efe0 50be 950c ca3d
000001b0: af48 06be 6853 4b3d c0b9 54be d773 153e
000001c0: 2209 8c3d dcc0 3cbe 7257 e63d 5cc9 46bd
000001d0: 4128 b0bd a2c3 7bbe d781 e3bc 2625 e53d
000001e0: 0c8c 383e db8d 8f3d f1fb 34bd 693f 2d3d
000001f0: 59e3 38be 73c1 9fbd 0933 f3bd 1c3f c43d
00000200: e24d d4bd 5fe4 2abd 8ba1 ab3d 1b43 66bb
00000210: 64ca 843d aaa0 a0bd 5ad3 05be 02b7 18bc
00000220: 9201 08bc db1f 53be 41ff 33be 2090 c43d
00000230: 69b7 f63d b65f 3a3e 2684 6bbd 1167 9d3d
00000240: 8c86 abbd db95 52bb 355b 44bd 3de1 a3bc
00000250: b999 6b3d ed8b b43d 4f7c b03d 4c1d e9bd
00000260: 0489 5dbd d100 833d 12ce ac3d aba3 6d3c
00000270: df7f e73d 4bfd 793d a888 88bc 8e53 293c
00000280: 1290 edbd 499d 713d 0588 4e3d 3629 b7bd
00000290: 59f1 97bd 3912 6dbd 4f81 db3d f20b b3bd
000002a0: d151 69be a1e5 1fbb f7cc 9a3d 6546 1a3d
000002b0: fba0 053e a610 3e3c 9632 7ebd a352 fe3d
000002c0: 1009 783d 1323 2b3d 17ab 1f3e 2a45 b23d
000002d0: 4319 ad3d f5bf 40be 6999 813d 7e61 acbd
000002e0: 1ce3 293e cb3f 913d 3c80 64bd 67e2 7c3c
000002f0: e2bf 4e3d fa4b f23d 7f50 9cbe 6397 d83c
00000300: 224c 033d 5036 29be 4213 dd3d b4ac 7a3d
00000310: c2fb 92bd 4211 22be 9326 013c 83e3 223e
00000320: 786a 60bd 3870 e33d f7a6 fbbd 45ff dfbc
00000330: 1442 bebd 114b 333b 7c0f a2bc 1000 753d
00000340: dded ed3c 0681 d2bd 56cd 973d 43a2 e33d
00000350: caff ba3d 8138 63bd 410d d8bc 868e ce3d
00000360: 7b1b 1dbe 0d79 ee3d 6991 c43c 78d2 c6bd
00000370: 8ab4 8e3d 1049 83be 4503 da3d 65be 3b3d
00000380: 9a37 f53d d787 ddbd 67e3 06be 00b8 b63d
00000390: 2177 84be 3ada 373e 7d30 af3b 6b2f 31be
000003a0: 9b33 b33d abdd 6fbd c471 1a3e 2ca4 8bbd
000003b0: 3176 10be 5542 17be 06c9 03be b087 2c3d
000003c0: a3ad 803d e2c7 afbd e2e1 94bd d48a b13c
000003d0: dbf4 f33c 3203 31bb c246 9bbd 9fc8 8fbd
000003e0: 4157 d73d 7b35 b239 7e37 e6bc 3390 34bd
000003f0: bd91 493e 4283 c03d 2b85 d9bc 8734 0bbc

classifier.2.bias f4 [10]
-0.010515999 -0.047711346 0.06399994 0.030053914 -0.13911955 0.110979676 0.07258153 0.04214827
0.14543751 0.07394699
00000000: 4c4b 2cbc f96c 43bd 6712 833d a033 f63c
00000010: 5b75 0ebe 5049 e33d a0a5 943d aaa3 2c3d
00000020: 92ed 143e 8571 973d
