ARTIFICIAL_INTELLIGENCE/Tensor_&_Setup/simple_cnn_mnist.pth (torch, 212363 bytes, 8 tensors)

features.0.weight f4 [8, 1, 3, 3]
00000000: 8809 a0be dc1c 683e be07 9bbe a44d adbe
00000010: e92d 8abe 412a 92be e88f b3be 686e 82be
00000020: 7905 41be c64e 7ebe 93b6 bc3e 9959 cf3e
00000030: d8f1 88bd 5eb1 043f 59e8 293f b745 383e
00000040: ad54 de3e ea62 4dbe e4d4 f8bd 2692 ed3e
00000050: cfb8 0abe 96a1 2b3f 539b a23e 3ad2 2f3e
00000060: 9761 173e 8e04 523e efb5 cc3e 4235 3e3e
00000070: 5759 ae3d 081d 603e 773d 21bd 0f3f 6b3c
00000080: f02f 0f3f cef4 a4bc 1dd5 9f3e b4c3 153f
00000090: 6cd2 973e e82c 033f c6ee 143e 8807 4cbd
000000a0: a483 8dbd 88b5 963e 4d7e 89bd 9af6 b1be
000000b0: 7c60 4d3e 5af6 e23e 898a 0e3f 228a 7a3e
000000c0: 42e7 0ebe 602b 523d c035 873e 2ed4 3dbf
000000d0: 3834 05bf f2fe f4be 8496 d7bc 0a31 41bd
000000e0: 0305 ed3e 35ec 1a3d bc8b 9c3d a09c f6bc
000000f0: c433 10be 5a82 443e 22c6 ee3e efb4 0c3f
00000100: 0a53 993e 9a85 a73e 01c7 513d 4b5a cc3e
00000110: 262f 0fbd 63e9 cd3e 817f 3cbc 3c10 dcbe
-0.31257272 0.22667259 -0.30279344 -0.33848298 -0.26988152 -0.28547862 -0.3507073 -0.25474858
-0.18849744 -0.24834737 0.36858043 0.40498045 -0.06686753 0.5183314 0.6637016 0.17995344
0.43423977 -0.20057264 -0.12149981 0.46400565 -0.13547061 0.67043436 0.31759128 0.17170039
0.14783321 0.2050955 0.39982554 0.18575004 0.08513134 0.21886075 -0.039365258 0.014358296
0.5593252 -0.020136263 0.3121728 0.58501744 0.29652727 0.51240396 0.1454421 -0.04981187
-0.06909874 0.29435372 -0.06713543 -0.34758455 0.20056337 0.44328576 0.5568014 0.24466756
-0.13955405 0.051310897 0.26408195 -0.74151886 -0.52032804 -0.47850758 -0.026316889 -0.047165908
0.46292886 0.03782292 0.0764384 -0.030103981 -0.14082247 0.1919035 0.46635538 0.5496358
0.29946166 0.32719117 0.051215176 0.39912638 -0.034957074 0.40217122 -0.011505009 -0.42981136

features.0.bias f4 [8]
00000000: a414 e63e d05f cdba cfa8 72bb f11b 7dbb
00000010: 4d16 f33d e4d9 163e 2fe2 483e d49a 033a
0.44937623 -0.0015668813 -0.0037026887 -0.003862139 0.11869488 0.14731556 0.19617532 0.00050203246

features.3.weight f4 [16, 8, 3, 3]
00000000: 21ff c43c 4508 21be bada 32be cf8a 5bbe
00000010: 1f76 2abd d000 9ebd 91fc acbd 548e 28be
00000020: 3636 3cbe 8cde 1abe cab6 963d 260e 69bd
00000030: dc61 443e def3 f3bc 42f4 3fbe 7787 23be
00000040: 52b9 f2bc b1d9 803d ebc5 ddbd 50cb 2d3d
00000050: ff76 16bd f11d cd3d 4a55 1e3e 9f18 0d3e
00000060: 9046 e8bd 1b90 0dbe 090e 263e d7a6 21bd
00000070: 579a 083e dc86 23bd 456a 0abd 837a 303e
00000080: 59e0 323e 0a99 bebd aa1c dabc 04be 333d
00000090: 229d d23c 9389 2abc 77c8 79bd 3663 223e
000000a0: 5199 fc3d d1aa fc3d f66f b93d e018 cd3d
000000b0: aebf 6d3e 7a63 383e 86ab 19bd 4ee0 0c3c
000000c0: 0add e63e 3ab1 ab3e f30a fdbd 5b92 d73e
000000d0: 3d55 533e 500a de3d a682 ce3b d95a 95bb
000000e0: 3d7f d1bb f69b 0c3c 6ce4 45bc 1d9b f53d
000000f0: 260b 0bbe 954f bdbd 5a80 e83d 4cc4 14be
00000100: 8487 debd 1641 da3c 87c9 223e b42f 18bd
00000110: b72a 63bc 4168 703d 5be8 f8bd b65b 9b3c
00000120: 708e 11bc a1bd 473e 65d5 6f3c 86be 223e
00000130: d64d 663b 4a7f 38be ed90 4f3e bca0 71bb
00000140: 1901 b0bd aace 92be 044b 78be 0b6b df3e
00000150: b63e c5be d7f6 ae3c 4ebf cb3e ee3d babe
00000160: cdd2 393e 1278 8b3d 9e6e 8dbd edf2 44be
00000170: 4c95 713e 5d21 c8bd b44e eabd 9cfb e13d
00000180: 74fb edbd a789 d6bc 572c 9c3d da5f 86be
00000190: 8166 b83d 2d9e 7a3e 6a7f a6be ccdb fc3d
000001a0: 01fe 203e bce6 53be a662 603e 6789 d83d
000001b0: 4b30 e7bc e1d1 d03d 8697 3d3e c617 f6bc
000001c0: f1ad 35bc a1c9 d83c 7f68 99bd 7e5e 9dbc
000001d0: 4b0f 5a3d 7cdb dd3d 7068 c3bd 4344 d0be
000001e0: c1d3 e3bd cd97 05bf 858c 0cbf 0374 883d
000001f0: e959 06bf 471f cebe 4da2 d6bd 5930 253d
00000200: 675f 933e c07a 2ebe 4185 a23d da29 863d
00000210: 1cec 4bbd 8583 243e 1a6b 493e b9f9 5fbd
00000220: 762d a0be 5b1c 703e 4517 e93b d9b3 92be
00000230: 654d 7d3e de8d 6abe 37dc 64bd 9f3a 483e
00000240: ddae 15be 9213 5abe 320f d1bd bb93 abbd
00000250: 78e3 78be 49d6 19be 0865 a9bd 28b8 0e3c
00000260: a889 2cbe 7127 093e 2a28 81bd b30f ddbd
00000270: 526c a3bc ac08 a7bd 98f5 283d 319f cbbd
00000280: ce6a 89bc 4047 bc3d 4f77 0d3e 5db2 143d
00000290: 20d0 ccbb 0022 c53d 1f0a 373e b225 db3d
000002a0: 25b6 89bd e1b9 47bd 2c2d 88bc d03e 053e
000002b0: 970a b2bd 90e9 81bb 7bc4 843d 3bbf de3d
000002c0: 054a 6d3d 3cd5 87bd e757 e63b 1ec1 fc3c
000002d0: 8fda f23d b60c 9a3d 4ab4 0ebe 2dd0 f43d
000002e0: 0792 89bc b882 e13d 1e18 7dbd c8a1 143e
000002f0: 34b9 c03d 61a8 913d b7c5 3d3d c82b efbd
00000300: bc93 e73d f0e3 57bc c0e1 5dbd 840f 20ba
00000310: 4dfe 803e bf5e 903e a532 993b 9fcf db3d
00000320: e0f3 fd3b 493e be3d 1146 833d 273f b73d
00000330: fae4 aabc d3d1 23bd 6315 9f3d 3744 b33d
00000340: 460a 05bc 7932 10bc 1b18 49bd 4933 df3b
00000350: b181 743c a091 00bd af96 393d 0648 0ebd
00000360: 9c90 dc3c 125a 80bd 87e5 70be 7a9c 193c
00000370: a90c 84be 0e5d 07be 0a54 b03d ce8f 59be
00000380: 22c1 6bbe 25cf a0bc 9f2b 6d3e a22c 1f3e
00000390: 7f5a 043d 5ffa 19bc 139e 29be 6e52 ddbd
000003a0: 3784 c43d 1086 913c 5a07 26be 8ede 293e
000003b0: 6b80 183e 8c01 a8bc c8d7 7c3e ed4c e2bd
000003c0: 3699 49be 28fe a23c 2f8e a53d 805b 98bc
000003d0: be7e 523e 7c67 29bd 2d63 e23d 2f26 373e
000003e0: 029c cc3d ede8 07be ca7a 373e ffac 003c
000003f0: ba08 3a3d af50 a83c bd90 343d cbb4 043e
0.024047436 -0.15725811 -0.1746625 -0.2143967 -0.041616555 -0.07714999 -0.08446611 -0.16460544
-0.18380055 -0.15123957 0.07359083 -0.05689826 0.19177955 -0.02977937 -0.1874552 -0.15969644
-0.029629383 0.06291521 -0.108287655 0.042430222 -0.036734577 0.100154765 0.15462223 0.13778923
-0.11341584 -0.13824503 0.16216291 -0.03946575 0.13340126 -0.039923534 -0.033792753 0.17234235
0.17468394 -0.09306534 -0.026624996 0.043882385 0.025709692 -0.010408777 -0.060982194 0.15858158
0.1233393 0.12337268 0.09054558 0.1001451 0.23217651 0.18006697 -0.037517093 0.0085984
0.45090514 0.3353365 -0.12355604 0.42103848 0.20637985 0.10841811 0.0063021956 -0.004557949
-0.006393342 0.008582106 -0.012078386 0.11992476 -0.13578472 -0.09243695 0.11352606 -0.14528006
-0.10865691 0.026642364 0.15897189 -0.03715487 -0.0138651645 0.058693174 -0.12153693 0.01896463
-0.008884057 0.19505931 0.01463828 0.15892991 0.0035141609 -0.18017307 0.20270129 -0.0036869487
-0.08593959 -0.28673297 -0.24247366 0.43636355 -0.38524407 0.021357937 0.3979439 -0.36375374
0.1814682 0.06810011 -0.06905864 -0.19233294 0.23592108 -0.097719885 -0.11440793 0.11034319
-0.116202265 -0.026188685 0.07625645 -0.26245004 0.09003926 0.24474402 -0.32519084 0.123466104
0.15721895 -0.20693487 0.21912631 0.105730824 -0.02822127 0.10196281 0.18514833 -0.030040633
-0.011088834 0.026463332 -0.07490634 -0.019210096 0.05323724 0.10832879 -0.09541404 -0.4067708
-0.11124373 -0.52184755 -0.54901916 0.066627525 -0.5248094 -0.40258238 -0.10480175 0.04032931
0.28783724 -0.17039013 0.079355724 0.06550951 -0.04978572 0.16065796 0.19669762 -0.054681513
-0.31284684 0.23448317 0.0071133696 -0.28652838 0.24736555 -0.2290568 -0.055874076 0.19553612
-0.14617486 -0.21296528 -0.102079764 -0.08377787 -0.24305522 -0.1502315 -0.08271223 0.008710898
-0.16849387 0.13393952 -0.06306489 -0.1079401 -0.019949112 -0.08155951 0.04124984 -0.09942473
-0.016774561 0.09193277 0.13815044 0.036302913 -0.0062503964 0.096256256 0.17874955 0.10700549
-0.067241944 -0.048761252 -0.016623102 0.13012242 -0.08693426 -0.0039646104 0.06482788 0.10876318
0.05793192 -0.06632468 0.0070295217 0.030853804 0.11858093 0.07521956 -0.13935962 0.11953769
-0.016793264 0.11011261 -0.061790578 0.1451484 0.09410325 0.07112194 0.046331134 -0.116782725
0.11307475 -0.013176903 -0.05417037 -0.00061058276 0.25194016 0.28197286 0.0046752268 0.1073296
0.0077500194 0.09289224 0.064098485 0.08947592 -0.020861138 -0.039995026 0.07767751 0.08753245
-0.008120125 -0.008801096 -0.049095254 0.0068115336 0.014923499 -0.03138888 0.04530972 -0.034736656
0.026924424 -0.062671795 -0.23525058 0.009375686 -0.2579091 -0.13219091 0.08609779 -0.21246263
-0.23022893 -0.019630024 0.23161171 0.1554437 0.032312866 -0.009398072 -0.16564207 -0.10806738
0.095955305 0.017764121 -0.16213742 0.16588804 0.14892738 -0.02050855 0.24691689 -0.11049829
-0.19687352 0.019896582 0.0808376 -0.018598318 0.20556161 -0.041358456 0.110540725 0.1788566
0.09990694 -0.13272448 0.17917934 0.0078537455 0.04541848 0.020546285 0.044083346 0.12959592

features.3.bias f4 [16]
00000000: 9a35 c6bd aa54 603d 8c70 bfbd 148a d6bd
00000010: 8888 60bd 4f04 9cbd 095e 34bc b379 6b3d
00000020: d9b6 5d3d c5b8 efbb e6bc a53d 9881 4fbd
00000030: 2dca 9abc 9120 88bb e9a6 013c ad93 f2bd
-0.096781924 0.054768242 -0.093476385 -0.10475555 -0.054817706 -0.07618009 -0.011008748 0.05748911
0.054129455 -0.0073157274 0.0809267 -0.0506607 -0.018895233 -0.004154273 0.00791333 -0.11844573

classifier.0.weight f4 [64, 784]
00000000: 1dc4 b43c 2bcf 63bc a541 93bc 7595 52bb
00000010: c96d 97bc 41e7 a23c dead 903b 9010 53bb
00000020: 1d68 a03b ab5a 48bd 7ef2 29bd b36c 47bd
00000030: a11e eebc 9726 e6bc ab7c 04bc ecfc 33bc
00000040: cae3 6ebb 52bf 34bd 1ec4 51bd 770a bfbc
00000050: 2891 10bd f25d e53c 9b9d 7bbd e4c8 503c
00000060: 1f83 fcbb d39f 0bbd 82ba aa3c d46f cdbc
00000070: 430d 20bd 5cf5 6dbc f191 843b 6e88 0bbd
00000080: 1e0d bdbc 0e99 e7bc ac53 1abc f86d 4bb9
00000090: 1030 a5bb afd6 5ebd 651a dcba 1d42 79bd
000000a0: 9edf 803c dbbe 8dbc a755 05bd 9738 063c
000000b0: 5cc7 563d 6d9f 11bd d208 5abd 531b b93c
000000c0: 3ce0 efbb 7d2c f5bc 3516 443d 5f60 d6bc
000000d0: 6623 1dbc 3601 993b 87da d23c 7c48 b9b9
000000e0: 1325 14bd 522f 5cbd 2890 7e39 e12c 55bd
000000f0: 44e6 6d3d e2f6 dfbb 4076 693c ed05 e0bc
00000100: b464 b836 fd6d 82ba 3345 b1bc 0da0 3ebb
00000110: 0096 dfbb c333 f4bc a18b e83c 6d92 06bd
00000120: 0ecc 89bc 2103 ed3c bffd 543c ce2e d9bc
00000130: ad89 de3a e519 bd3c 6398 74bc 1c9d 32bd
00000140: 7502 363d 8db8 663d a2d7 843c dcba 2dbd
00000150: 781b 203c cc26 03bd c0d2 833d 1401 8a3d
00000160: a473 05bb ab59 e1bc fbcb 683b d8f1 7d3b
00000170: 02f0 98bc 2ef3 263a dfd6 4bbd 4ed9 bfbc
00000180: 00fb 57bc 2228 57bd d54f d3bc 843e 493c
00000190: 9013 be3c 83a5 64bd 875c fb3b 0eed 52bc
000001a0: 8c6e a0bc e242 9f3c 66fa 1ebc 1a92 4fbd
000001b0: f940 6abd 4771 12bd 25eb f4bc a8e6 a83c
000001c0: d79e 063d 5d28 b3bc 7a6b 28bc e236 79bd
000001d0: bfc2 acbc e078 27bd bc56 19bd 00ef a03c
000001e0: 21d4 3c3b 91d3 a9bc 42d2 6cbb f811 51bb
000001f0: d82a 123c 2b82 0e3d 0048 9bbb 2b35 fbbc
00000200: 3a50 d3bb 97cb 21bd fe64 f2bb 54de bcbb
00000210: 44c1 5c3c 3e8a c93c b68e 7fbd b167 52bd
00000220: 52c0 90ba 687d 43bd fea8 6cbd 0f43 00bd
00000230: 8e5e f5bc 6a5d 66bc 982e a0bc 22cf 1b3d
00000240: afea cfbc af87 233b 3583 82bc 7635 ae3c
00000250: baa1 ed3c e288 e7bb c4a7 643c 0839 a939
00000260: 3076 803b a2c3 08bd ef53 023d 908a 83bb
00000270: 26f2 583c 1484 aabb 7b70 28bd 952a 08bd
00000280: 2927 adbc 60b3 9a3a 0027 af3c 825e 2d3b
00000290: 6f50 42bc a39d 05bd 729e a53c 32cf cb3c
000002a0: 1e6a 8fbc e896 1fbd 0228 93bc e21f c7bc
000002b0: 083a eb3c 42c2 943c 45e6 aa3c 80a8 89bb
000002c0: 1185 73bc 636d 9c3b e59b 19bc 8219 1cbd
000002d0: c64d 53bc 0018 7c3a 2a93 4bbc 2fed 86bd
000002e0: a1ff 60bc 93ae 40bd 285d 2ebd c0f2 a43a
000002f0: 78aa 2e3c ca38 92bc aa55 74bc c0f2 09bc
00000300: 9bd3 14bd 1b31 afbc b222 693c e01c 18bd
00000310: 402a 8b3b 1709 983c 1f07 b53c a970 5a3b
00000320: 0c7d 62bd c92f 5ebc 487d dd3b 9863 86bb
00000330: 8c31 81bd a09a f2bc 704f 02bd da42 73bd
00000340: 3389 a9bc d399 043d f34e c2bc a6bb a13c
00000350: c3fa 383d c628 123d 551a 123d 0e2a b8bb
00000360: 57fd 073d 1abf a6bc e116 283b 4c52 2abd
00000370: 2754 be3c dd8e 47bb 3ddf 7dbd 9ef5 98bc
00000380: 4081 32ba 27f4 84bd 60ab 48bd ab5e e1bc
00000390: 66ca 67bd 6d67 22bd 2718 9abc bc80 6ebc
000003a0: 6c5f aabb 5d9f 8c3d 1982 633d 1c07 ed3c
000003b0: 17d8 8c3b 18f9 23bc 1cec a2bc 88eb f4bb
000003c0: 4356 a1bc 8b5d 06bd 555f fabc 4c31 03bd
000003d0: 0b02 003d 53d0 febc 501f 0f3c c5b3 933d
000003e0: 0b63 0dbb 3ced 18bc e2ff db3c c5f7 afbc
000003f0: 4318 043d c0a6 48bc 9eea 1c3b 4fff 333d
0.02206617 -0.013904373 -0.017975638 -0.003213254 -0.018484967 0.019885661 0.004415258 -0.0032205917
0.004895224 -0.048914593 -0.041491024 -0.048687648 -0.02906734 -0.028094573 -0.008086364 -0.010985594
-0.003645169 -0.04412777 -0.051212423 -0.02332042 -0.03529468 0.027998898 -0.0614296 0.012743209
-0.0077060605 -0.034087967 0.020840887 -0.025077738 -0.039075147 -0.01452383 0.004045718 -0.034065656
-0.023077544 -0.028271224 -0.009419363 -0.00019400555 -0.00504113 -0.054403957 -0.0016792534 -0.060854066
0.015731629 -0.017302921 -0.032552388 0.008192203 0.052436218 -0.03555243 -0.053231068 0.022596037
-0.007320432 -0.02992844 0.04787274 -0.026169 -0.009590959 0.004669334 0.025738968 -0.00035339955
-0.03616817 -0.053756066 0.0002427703 -0.052044753 0.058080927 -0.0068348506 0.014249384 -0.027346576
5.4953507e-06 -0.0009950992 -0.021639442 -0.0029087097 -0.0068233013 -0.029809838 0.028386893 -0.032854486
-0.016820934 0.028932156 0.012999951 -0.026511576 0.0016978286 0.023083637 -0.01492891 -0.043606862
0.044435937 0.056328345 0.016216103 -0.04241453 0.009772174 -0.03201942 0.06436682 0.06738487
-0.0020363117 -0.027508577 0.0035521972 0.0038748886 -0.018669132 0.0006368634 -0.049765464 -0.023419049
-0.013182402 -0.052528508 -0.025794903 0.012282971 0.023202688 -0.055821907 0.007670942 -0.012873901
-0.019583963 0.019441072 -0.009703254 -0.050676443 -0.05719087 -0.03575256 -0.029897282 0.020617798
0.032866325 -0.021869833 -0.010279531 -0.060843356 -0.021088956 -0.04088676 -0.037436232 0.019645214
0.0028812962 -0.020730766 -0.0036136066 -0.003190158 0.008921348 0.034792107 -0.0047388077 -0.030665
-0.0064487727 -0.0395008 -0.007397293 -0.0057638083 0.0134738125 0.024602052 -0.06239196 -0.05136842
-0.0011043644 -0.04772702 -0.05777835 -0.031313952 -0.029952314 -0.014060358 -0.019553468 0.038039334
-0.02538046 0.00249527 -0.015931705 0.021265727 0.029007781 -0.0070658782 0.013956014 0.00032276683
0.003920339 -0.033389695 0.031818327 -0.0040143207 0.013241326 -0.005203733 -0.041122895 -0.033243734
-0.021136837 0.0011802725 0.021380901 0.0026454036 -0.011859997 -0.032621037 0.020217154 0.024879072
-0.017506655 -0.038962275 -0.017963413 -0.024307195 0.028714195 0.018159036 0.020861754 -0.004200995
-0.0148632685 0.004773782 -0.009375547 -0.038110264 -0.012896961 0.00096166134 -0.012425223 -0.06588208
-0.013732822 -0.047041487 -0.04256931 0.0012584552 0.01066076 -0.017849345 -0.014913002 -0.0084196925
-0.036334615 -0.02138572 0.014229463 -0.037136912 0.00424698 0.018559022 0.022098122 0.003333131
-0.055295035 -0.013561198 0.0067593195 -0.004101228 -0.063082784 -0.029614747 -0.03181404 -0.059389926
-0.020695304 0.03237326 -0.023719287 0.019742798 0.04516102 0.035683416 0.035669643 -0.0056202477
0.033200588 -0.020354796 0.0025648403 -0.04158239 0.023233486 -0.0030450143 -0.061980475 -0.018671807
-0.0006809421 -0.06491881 -0.04899156 -0.027510962 -0.056589507 -0.039649416 -0.018810345 -0.01455706
-0.0051993635 0.06866334 0.055543993 0.028934054 0.004298221 -0.010008119 -0.019887976 -0.0074743666
-0.019694453 -0.032804053 -0.030563036 -0.032029435 0.03125195 -0.031105196 0.008735493 0.07212023
-0.0021573927 -0.009333905 0.026855413 -0.02148045 0.0322497 -0.012246788 0.0023943554 0.043944653

classifier.0.bias f4 [64]
00000000: 73b6 3ebd 6e10 3cbd 520d 643d 4344 fd3b
00000010: 69be 1a3d 246e 0fbd 843c c5bc 065b 96bc
00000020: d525 0fbc 0a44 2a3d ebc5 773d c51f 753d
00000030: da27 98bc d1e3 953c 1f97 7cbc 7e13 963c
00000040: c3c7 463d 16f5 483c a70e 23bd 7a23 d1bb
00000050: 549c cbbb 6656 11bd 51dc 623d 78b1 83bc
00000060: 2ca1 8dbb 6523 1dbd 6113 66bc ce81 593d
00000070: 5960 75bc 14a8 13bb 7cc9 babc 50d2 16bd
00000080: 7082 603b 7777 17bd 37ca 0c3c 9805 193d
00000090: 8cc2 033d 55d4 b9bb 9911 28b8 f10e bfbc
000000a0: cdbe abbb 93dd 09bd 94e4 f9bc 2492 bc3b
000000b0: 6dc1 90bc d41e 21bd d72d dc3c bc36 843c
000000c0: 83b3 cf3b 325d 22bd abf4 6c3c 7f2c 623d
000000d0: 87f6 00bd 774d 08bc 6d1b 183c 13c4 1f3c
000000e0: 1b8f 07bd 8199 543c ce98 023c 411b 1d3c
000000f0: 8902 83bb 2e09 a0bc f2b9 3aba d085 55bc
-0.046560716 -0.045914106 0.055676766 0.0077290847 0.037779246 -0.035017148 -0.024076708 -0.01835395
-0.008737047 0.041568793 0.060491484 0.05984475 -0.01857369 0.018297108 -0.015416889 0.018319841
0.04853035 0.012265464 -0.039808895 -0.006382403 -0.006213704 -0.035482787 0.05538589 -0.016075835
-0.0043221917 -0.038363833 -0.014042706 0.053102307 -0.014976584 -0.0022530602 -0.022801153 -0.036821663
0.0034257434 -0.036979165 0.008593134 0.03735885 0.032167956 -0.005671064 -4.007071e-05 -0.023322554
-0.005241251 -0.033658575 -0.030504502 0.005754726 -0.017670358 -0.03933604 0.026877327 0.01613938
0.006338538 -0.03963966 0.01446263 0.055218216 -0.031485107 -0.00831925 0.009283883 0.009751338
-0.03309546 0.012976051 0.007971002 0.009589017 -0.003998105 -0.019535627 -0.0007123045 -0.013032392

classifier.2.weight f4 [10, 64]
00000000: 5ea1 16be 73c4 e93d 9ab4 6cbe c5c2 bebc
00000010: 19d5 0b3e 5241 033d 82bc 833b 2748 af3c
00000020: 6425 82bd a465 1d3e c7d2 ba3d 275f 01be
00000030: 1cfb 5b3d bc71 5cbe 9da7 06bd 8a7b 08be
00000040: 869a 68bd ba6d 173e 57ca 153e 593b dcbd
00000050: 869a 153d a008 aebd 17ea bf3d 7944 fe3c
00000060: 2789 433d 0bc7 15bd c73f dbbd 1bb5 0c3e
00000070: cf17 58bd c241 3d3d a142 c8bd 0fdc cf3c
00000080: d625 c83d bc0e d0bd 5848 123e 2d1c 85bd
00000090: 6c94 f5bc 5c05 33be b8e4 ea3c 0565 2ebe
000000a0: f66a c03d 3259 a2bd 12c1 973d 644e ecbd
000000b0: 3671 8d3d e2d1 053d f22b 583c 87d6 6b3d
000000c0: 763a c3bc 5c5c d5bd a3ec 68be e488 1b3d
000000d0: 61a3 003b dee7 943d 92e1 1e3d 799c 01be
000000e0: cf9f fd3d dcd9 073d ed04 2abe 19ac 323e
000000f0: 7a03 cfbc 0b3c 613a 50ff 063d 1581 f63c
00000100: a9fe 223e 8f4a aa3c 6708 a9bd 32f4 b6bd
00000110: 4bc4 0bbe 743b 7e3c d354 98bd 0039 c23d
00000120: f017 6fbd f598 4abe 97dc c5bd 9a8c a53d
00000130: 9bb8 b93d 519b 4c3e 082c bd3d 94d2 703e
00000140: f3bc 32bd 6c69 fe3c afdc 82bd 612c f23d
00000150: 6e4f 19be 43d7 533d d911 053d fd55 babc
00000160: a57a 353d 2e74 a13c 6ee4 bebd ad49 533e
00000170: 570e c13d 5fcb 163d ee7c 99bc 655f 0f3d
00000180: 0d15 273e dded 813d 1708 22bd b4c6 273e
00000190: 60b7 183e 818d 953c 4b66 1e3d 210b 4bbe
000001a0: 8e23 de3d bccd d93d 4cec 11be 4a8e 3e3c
000001b0: 12ba df3d c133 83be 0dd3 753c 230c d4bd
000001c0: db12 af3d 4896 4b3d e821 2abe a915 6a3e
000001d0: 8083 82be 22d8 39be fe50 923d cf19 393e
000001e0: 1d87 443e 2ec0 3b3c 933c 8dbe 9034 cd3c
000001f0: 10e2 dfbd fdf5 d3bb 59d6 443d c641 6abe
00000200: e46b 03bd d0ac 05be 4990 6abe b4f3 8cbd
00000210: 3a5c 71bd 0b4e f8bd 8e17 823d f175 97bd
00000220: e492 a03d a3b0 da3c 5fe7 a1bd a36e 333e
00000230: e685 4d3d 446e d43d 157d 61bd d66a bd3d
00000240: dd93 263e 9085 aa3d 72ee 15be d81b ce3d
00000250: ee61 d7bc a037 8b3d 2a87 233e 824e a53d
00000260: b838 a63d 028f 6e3c a2ed fcbb f07e 0dbe
00000270: e333 823d cf85 c7bc 8204 263d 52df 393d
00000280: 7cd5 bc3d 7b6a 703d 3fd7 463e 9eba 6fbe
00000290: 49af da3d 529e 42be ea02 d6bd 191c 853d
000002a0: 3dc8 be3d a6c5 2cbd 1c19 2f3d e36f 9c3d
000002b0: 7d21 933c 6c48 aa3d d5ec 353d 4c99 c83d
000002c0: c4f7 3abc 25ce d13d d8b5 553d f41d 94be
000002d0: 9d90 473d 556c 11be 3f78 913d 960f 0e3e
000002e0: 946b 18be fb2e 1f3d df3f 12be b4eb cabc
000002f0: 33e8 333d c67b e3bd af0f 633e 696b 8cbe
00000300: 17da 0dbe 797a 6ebd 8f35 0dbe ccde 09bd
00000310: 8dbc ab3d cb7d 873b ef99 98bd 7a31 843c
00000320: 86c8 a33b cd4d eb3d b403 f7bd 1363 9bbd
00000330: 2e7c d23d 091e 523c 0e66 c73d c072 84be
00000340: 6533 993d 3013 51bc d6c4 a03d 0ef7 c9bc
00000350: 786e 66be 44d2 8dbd 4f53 7dbe 87fa 6ebd
00000360: 0425 1ebd 80cf bcbc 6019 353e 2651 8bbe
00000370: c19a 883d d517 783d 3c97 c5bd 860a 44bc
00000380: 5f2a e1bd b4cc d2bd 8c04 653d 2b2d 113e
00000390: a693 7dbe 1bec 2e3e c094 9fbc 325e a5bd
000003a0: fdb5 c43d 23d0 f4bc 0364 98bd dff2 733c
000003b0: 4440 813d 426e b1bd 5443 463d 1038 0d3e
000003c0: c887 77bd ca3a a73d 2e33 243e cab3 fabd
000003d0: e721 a5bd d628 4b3c ace0 bfbd 1207 1e3e
000003e0: 9e3a 9e3d e87b da3c 0155 f33d fbc1 dfbc
000003f0: 296b dbbc e21c bf3d f69e e33b 6a2f d53d
-0.14709994 0.11414423 -0.23115769 -0.023286233 0.13655509 0.032044716 0.0040202746 0.02139671
-0.06354788 0.15370804 0.09122234 -0.12633954 0.053706273 -0.21527761 -0.032874692 -0.13328376
-0.05678799 0.14787951 0.14627968 -0.10753507 0.03652432 -0.08497739 0.09370821 0.03103851
0.04773822 -0.036566775 -0.10705524 0.13740961 -0.05275708 0.04620529 -0.097783335 0.025373487
0.09772842 -0.1015906 0.1428541 -0.06499515 -0.029978 -0.17482513 0.028673515 -0.17030723
0.09395401 -0.07927169 0.07409872 -0.11538389 0.06906359 0.032670863 0.013194071 0.057577636
-0.023831587 -0.10418007 -0.2274652 0.037972346 0.0019628631 0.07270788 0.03878934 -0.12657346
0.12383997 0.03316675 -0.16603442 0.17448463 -0.025270212 0.0008592016 0.03295833 0.030090848
0.15917458 0.020787505 -0.08253556 -0.08933295 -0.13649099 0.015517104 -0.07438054 0.09483528
-0.058372438 -0.19784911 -0.09661215 0.08083458 0.09068414 0.19981124 0.09236914 0.23517829
-0.043637227 0.031056128 -0.06389748 0.11824871 -0.14971706 0.05171896 0.032487724 -0.02274608
0.044306416 0.01970872 -0.09320913 0.20633574 0.09426563 0.036815044 -0.018736329 0.035003085
0.16316624 0.06344197 -0.039558496 0.16384393 0.14913702 0.01825595 0.038671773 -0.19828464
0.10846625 0.10634944 -0.14250296 0.011630604 0.10924162 -0.25625423 0.015003932 -0.103538774
0.08548518 0.049703866 -0.16614497 0.22859825 -0.25490952 -0.18148854 0.07144354 0.18076251
0.19192167 0.011459393 -0.27585277 0.025049478 -0.1093179 -0.006468533 0.04805598 -0.22876653
-0.032085314 -0.13054204 -0.22906603 -0.0688242 -0.058925845 -0.121242605 0.06352149 -0.073955424
0.07840517 0.026695555 -0.07905459 0.17522673 0.050176524 0.10372594 -0.05505093 0.09248893
0.16267343 0.08326256 -0.14641741 0.100639045 -0.026291814 0.06797719 0.1596953 0.08071615
0.08116287 0.014560463 -0.0077187577 -0.13817954 0.06357553 -0.024355797 0.040531643 0.04537899
0.092204064 0.058695298 0.19418047 -0.23411033 0.10677964 -0.19005707 -0.104497746 0.064995
0.09315536 -0.04218068 0.042748556 0.07638528 0.017960304 0.083145946 0.044415314 0.09794864
-0.011411611 0.10244397 0.052175373 -0.28929102 0.0487219 -0.14201482 0.07103013 0.13873133
-0.14884788 0.038863163 -0.14282177 -0.024770595 0.043922614 -0.11107592 0.22173952 -0.27425697
-0.13852726 -0.058222268 -0.13789962 -0.03365974 0.083855726 0.0041348687 -0.074512355 0.016136874
0.0049982695 0.11489449 -0.12061253 -0.07587256 0.10277592 0.012824544 0.09736262 -0.25868797
0.07480506 -0.012760922 0.078500435 -0.024653938 -0.22503078 -0.069248706 -0.24738811 -0.05834439
-0.03860952 -0.023048162 0.17685461 -0.2721035 0.06670142 0.060569603 -0.09647986 -0.0119654
-0.1099441 -0.1029295 0.05591254 0.14177386 -0.24763355 0.17082255 -0.01948011 -0.08074607
0.09605024 -0.029884404 -0.07440951 0.014889448 0.06311086 -0.08663608 0.048404053 0.13790917
-0.060432225 0.0816551 0.16035149 -0.12241323 -0.08063107 0.012399873 -0.09369025 0.15432385
0.07726024 0.026670411 0.118814476 -0.027314177 -0.026784496 0.09331681 0.00694644 0.10409434

classifier.2.bias f4 [10]
00000000: 48e8 e8bd 19c9 09bd 78cb 8e3d df82 dbbd
00000010: dfd5 26be e468 933d 8650 963d 11c7 d63c
00000020: 7d5a cd3d aa76 b53d
-0.11372429 -0.033639047 0.06972402 -0.10718321 -0.16292523 0.07197741 0.073395774 0.02621797
0.10027025 0.08860524
